<?xml version="1.0"?>
<net name="Model1536" version="11">
	<layers>
		<layer id="1" name="input_ids" type="Parameter" version="opset1">
			<data shape="?,?" element_type="i64" />
			<output>
				<port id="0" precision="I64" names="input_ids">
					<dim>-1</dim>
					<dim>-1</dim>
				</port>
			</output>
		</layer>
		<layer id="0" name="attention_mask" type="Parameter" version="opset1">
			<data shape="?,?" element_type="i64" />
			<output>
				<port id="0" precision="I64" names="attention_mask">
					<dim>-1</dim>
					<dim>-1</dim>
				</port>
			</output>
		</layer>
		<layer id="2" name="Constant_4001746" type="Const" version="opset1">
			<data element_type="i8" shape="30527, 768" offset="0" size="23444736" />
			<output>
				<port id="0" precision="I8">
					<dim>30527</dim>
					<dim>768</dim>
				</port>
			</output>
		</layer>
		<layer id="3" name="Convert_4001747" type="Convert" version="opset1">
			<data destination_type="f32" />
			<input>
				<port id="0" precision="I8">
					<dim>30527</dim>
					<dim>768</dim>
				</port>
			</input>
			<output>
				<port id="1" precision="FP32">
					<dim>30527</dim>
					<dim>768</dim>
				</port>
			</output>
		</layer>
		<layer id="4" name="Constant_4001748" type="Const" version="opset1">
			<data element_type="f32" shape="30527, 1" offset="23444736" size="122108" />
			<output>
				<port id="0" precision="FP32">
					<dim>30527</dim>
					<dim>1</dim>
				</port>
			</output>
		</layer>
		<layer id="5" name="__module.embeddings.word_embeddings/aten::embedding/Gather/fq_weights_0" type="Multiply" version="opset1">
			<data auto_broadcast="numpy" />
			<input>
				<port id="0" precision="FP32">
					<dim>30527</dim>
					<dim>768</dim>
				</port>
				<port id="1" precision="FP32">
					<dim>30527</dim>
					<dim>1</dim>
				</port>
			</input>
			<output>
				<port id="2" precision="FP32">
					<dim>30527</dim>
					<dim>768</dim>
				</port>
			</output>
		</layer>
		<layer id="6" name="__module.embeddings.word_embeddings/aten::embedding/Convert" type="Convert" version="opset1">
			<data destination_type="i32" />
			<input>
				<port id="0" precision="I64">
					<dim>-1</dim>
					<dim>-1</dim>
				</port>
			</input>
			<output>
				<port id="1" precision="I32">
					<dim>-1</dim>
					<dim>-1</dim>
				</port>
			</output>
		</layer>
		<layer id="7" name="__module.embeddings.word_embeddings/aten::embedding/Constant" type="Const" version="opset1">
			<data element_type="i32" shape="" offset="23566844" size="4" />
			<output>
				<port id="0" precision="I32" />
			</output>
		</layer>
		<layer id="8" name="__module.embeddings.word_embeddings/aten::embedding/Gather" type="Gather" version="opset8">
			<data batch_dims="0" />
			<input>
				<port id="0" precision="FP32">
					<dim>30527</dim>
					<dim>768</dim>
				</port>
				<port id="1" precision="I32">
					<dim>-1</dim>
					<dim>-1</dim>
				</port>
				<port id="2" precision="I32" />
			</input>
			<output>
				<port id="3" precision="FP32" names="56,inputs_embeds">
					<dim>-1</dim>
					<dim>-1</dim>
					<dim>768</dim>
				</port>
			</output>
		</layer>
		<layer id="9" name="Constant_4001750" type="Const" version="opset1">
			<data element_type="i8" shape="514, 768" offset="23566848" size="394752" />
			<output>
				<port id="0" precision="I8">
					<dim>514</dim>
					<dim>768</dim>
				</port>
			</output>
		</layer>
		<layer id="10" name="Convert_4001751" type="Convert" version="opset1">
			<data destination_type="f32" />
			<input>
				<port id="0" precision="I8">
					<dim>514</dim>
					<dim>768</dim>
				</port>
			</input>
			<output>
				<port id="1" precision="FP32">
					<dim>514</dim>
					<dim>768</dim>
				</port>
			</output>
		</layer>
		<layer id="11" name="Constant_4001752" type="Const" version="opset1">
			<data element_type="f32" shape="514, 1" offset="23961600" size="2056" />
			<output>
				<port id="0" precision="FP32">
					<dim>514</dim>
					<dim>1</dim>
				</port>
			</output>
		</layer>
		<layer id="12" name="__module.embeddings.position_embeddings/aten::embedding/Gather/fq_weights_0" type="Multiply" version="opset1">
			<data auto_broadcast="numpy" />
			<input>
				<port id="0" precision="FP32">
					<dim>514</dim>
					<dim>768</dim>
				</port>
				<port id="1" precision="FP32">
					<dim>514</dim>
					<dim>1</dim>
				</port>
			</input>
			<output>
				<port id="2" precision="FP32">
					<dim>514</dim>
					<dim>768</dim>
				</port>
			</output>
		</layer>
		<layer id="13" name="Constant_530427" type="Const" version="opset1">
			<data element_type="i64" shape="1, 1" offset="23963656" size="8" />
			<output>
				<port id="0" precision="I64">
					<dim>1</dim>
					<dim>1</dim>
				</port>
			</output>
		</layer>
		<layer id="14" name="__module.embeddings/aten::ne/NotEqual" type="NotEqual" version="opset1">
			<data auto_broadcast="numpy" />
			<input>
				<port id="0" precision="I64">
					<dim>-1</dim>
					<dim>-1</dim>
				</port>
				<port id="1" precision="I64">
					<dim>1</dim>
					<dim>1</dim>
				</port>
			</input>
			<output>
				<port id="2" precision="BOOL" names="48">
					<dim>-1</dim>
					<dim>-1</dim>
				</port>
			</output>
		</layer>
		<layer id="15" name="__module.embeddings/aten::to/Convert" type="Convert" version="opset1">
			<data destination_type="i32" />
			<input>
				<port id="0" precision="BOOL">
					<dim>-1</dim>
					<dim>-1</dim>
				</port>
			</input>
			<output>
				<port id="1" precision="I32" names="49,mask">
					<dim>-1</dim>
					<dim>-1</dim>
				</port>
			</output>
		</layer>
		<layer id="16" name="43" type="Const" version="opset1">
			<data element_type="i64" shape="" offset="23963656" size="8" />
			<output>
				<port id="0" precision="I64" names="43" />
			</output>
		</layer>
		<layer id="17" name="__module.embeddings/aten::cumsum/CumSum" type="CumSum" version="opset3">
			<data exclusive="false" reverse="false" />
			<input>
				<port id="0" precision="I32">
					<dim>-1</dim>
					<dim>-1</dim>
				</port>
				<port id="1" precision="I64" />
			</input>
			<output>
				<port id="2" precision="I32" names="50,51">
					<dim>-1</dim>
					<dim>-1</dim>
				</port>
			</output>
		</layer>
		<layer id="18" name="__module.embeddings/aten::mul/Multiply" type="Multiply" version="opset1">
			<data auto_broadcast="numpy" />
			<input>
				<port id="0" precision="I32">
					<dim>-1</dim>
					<dim>-1</dim>
				</port>
				<port id="1" precision="I32">
					<dim>-1</dim>
					<dim>-1</dim>
				</port>
			</input>
			<output>
				<port id="2" precision="I32" names="52,incremental_indices">
					<dim>-1</dim>
					<dim>-1</dim>
				</port>
			</output>
		</layer>
		<layer id="19" name="__module.embeddings/aten::to/Convert_1" type="Convert" version="opset1">
			<data destination_type="i64" />
			<input>
				<port id="0" precision="I32">
					<dim>-1</dim>
					<dim>-1</dim>
				</port>
			</input>
			<output>
				<port id="1" precision="I64" names="53">
					<dim>-1</dim>
					<dim>-1</dim>
				</port>
			</output>
		</layer>
		<layer id="20" name="Constant_530428" type="Const" version="opset1">
			<data element_type="i64" shape="1, 1" offset="23963656" size="8" />
			<output>
				<port id="0" precision="I64">
					<dim>1</dim>
					<dim>1</dim>
				</port>
			</output>
		</layer>
		<layer id="21" name="__module.embeddings/aten::add/Add" type="Add" version="opset1">
			<data auto_broadcast="numpy" />
			<input>
				<port id="0" precision="I64">
					<dim>-1</dim>
					<dim>-1</dim>
				</port>
				<port id="1" precision="I64">
					<dim>1</dim>
					<dim>1</dim>
				</port>
			</input>
			<output>
				<port id="2" precision="I64" names="54">
					<dim>-1</dim>
					<dim>-1</dim>
				</port>
			</output>
		</layer>
		<layer id="22" name="__module.embeddings.position_embeddings/aten::embedding/Convert" type="Convert" version="opset1">
			<data destination_type="i32" />
			<input>
				<port id="0" precision="I64">
					<dim>-1</dim>
					<dim>-1</dim>
				</port>
			</input>
			<output>
				<port id="1" precision="I32">
					<dim>-1</dim>
					<dim>-1</dim>
				</port>
			</output>
		</layer>
		<layer id="23" name="__module.embeddings.position_embeddings/aten::embedding/Constant" type="Const" version="opset1">
			<data element_type="i32" shape="" offset="23566844" size="4" />
			<output>
				<port id="0" precision="I32" />
			</output>
		</layer>
		<layer id="24" name="__module.embeddings.position_embeddings/aten::embedding/Gather" type="Gather" version="opset8">
			<data batch_dims="0" />
			<input>
				<port id="0" precision="FP32">
					<dim>514</dim>
					<dim>768</dim>
				</port>
				<port id="1" precision="I32">
					<dim>-1</dim>
					<dim>-1</dim>
				</port>
				<port id="2" precision="I32" />
			</input>
			<output>
				<port id="3" precision="FP32" names="58,position_embeddings.1">
					<dim>-1</dim>
					<dim>-1</dim>
					<dim>768</dim>
				</port>
			</output>
		</layer>
		<layer id="25" name="__module.embeddings/aten::add/Add_1" type="Add" version="opset1">
			<data auto_broadcast="numpy" />
			<input>
				<port id="0" precision="FP32">
					<dim>-1</dim>
					<dim>-1</dim>
					<dim>768</dim>
				</port>
				<port id="1" precision="FP32">
					<dim>-1</dim>
					<dim>-1</dim>
					<dim>768</dim>
				</port>
			</input>
			<output>
				<port id="2" precision="FP32" names="59">
					<dim>-1</dim>
					<dim>-1</dim>
					<dim>768</dim>
				</port>
			</output>
		</layer>
		<layer id="26" name="__module.embeddings.LayerNorm/aten::layer_norm/Multiply" type="Const" version="opset1">
			<data element_type="i32" shape="1" offset="23963664" size="4" />
			<output>
				<port id="0" precision="I32">
					<dim>1</dim>
				</port>
			</output>
		</layer>
		<layer id="27" name="__module.embeddings.LayerNorm/aten::layer_norm/MVN" type="MVN" version="opset6">
			<data eps="9.9999997473787516e-06" normalize_variance="true" eps_mode="INSIDE_SQRT" />
			<input>
				<port id="0" precision="FP32">
					<dim>-1</dim>
					<dim>-1</dim>
					<dim>768</dim>
				</port>
				<port id="1" precision="I32">
					<dim>1</dim>
				</port>
			</input>
			<output>
				<port id="2" precision="FP32">
					<dim>-1</dim>
					<dim>-1</dim>
					<dim>768</dim>
				</port>
			</output>
		</layer>
		<layer id="28" name="Constant_530429" type="Const" version="opset1">
			<data element_type="f32" shape="1, 1, 768" offset="23963668" size="3072" />
			<output>
				<port id="0" precision="FP32">
					<dim>1</dim>
					<dim>1</dim>
					<dim>768</dim>
				</port>
			</output>
		</layer>
		<layer id="29" name="__module.embeddings.LayerNorm/aten::layer_norm/Multiply_1" type="Multiply" version="opset1">
			<data auto_broadcast="numpy" />
			<input>
				<port id="0" precision="FP32">
					<dim>-1</dim>
					<dim>-1</dim>
					<dim>768</dim>
				</port>
				<port id="1" precision="FP32">
					<dim>1</dim>
					<dim>1</dim>
					<dim>768</dim>
				</port>
			</input>
			<output>
				<port id="2" precision="FP32">
					<dim>-1</dim>
					<dim>-1</dim>
					<dim>768</dim>
				</port>
			</output>
		</layer>
		<layer id="30" name="Constant_530430" type="Const" version="opset1">
			<data element_type="f32" shape="1, 1, 768" offset="23966740" size="3072" />
			<output>
				<port id="0" precision="FP32">
					<dim>1</dim>
					<dim>1</dim>
					<dim>768</dim>
				</port>
			</output>
		</layer>
		<layer id="31" name="__module.embeddings.LayerNorm/aten::layer_norm/Add" type="Add" version="opset1">
			<data auto_broadcast="numpy" />
			<input>
				<port id="0" precision="FP32">
					<dim>-1</dim>
					<dim>-1</dim>
					<dim>768</dim>
				</port>
				<port id="1" precision="FP32">
					<dim>1</dim>
					<dim>1</dim>
					<dim>768</dim>
				</port>
			</input>
			<output>
				<port id="2" precision="FP32" names="63,input.1">
					<dim>-1</dim>
					<dim>-1</dim>
					<dim>768</dim>
				</port>
			</output>
		</layer>
		<layer id="32" name="__module.embeddings.LayerNorm/aten::layer_norm/Add_0_0/nncf_smooth_quant/scale" type="Const" version="opset1">
			<data element_type="f32" shape="1, 1, 768" offset="23969812" size="3072" />
			<output>
				<port id="0" precision="FP32">
					<dim>1</dim>
					<dim>1</dim>
					<dim>768</dim>
				</port>
			</output>
		</layer>
		<layer id="33" name="__module.embeddings.LayerNorm/aten::layer_norm/Add_0_0/nncf_smooth_quant" type="Multiply" version="opset1">
			<data auto_broadcast="numpy" />
			<input>
				<port id="0" precision="FP32">
					<dim>-1</dim>
					<dim>-1</dim>
					<dim>768</dim>
				</port>
				<port id="1" precision="FP32">
					<dim>1</dim>
					<dim>1</dim>
					<dim>768</dim>
				</port>
			</input>
			<output>
				<port id="2" precision="FP32">
					<dim>-1</dim>
					<dim>-1</dim>
					<dim>768</dim>
				</port>
			</output>
		</layer>
		<layer id="34" name="__module.embeddings.LayerNorm/aten::layer_norm/Add_0_0/nncf_smooth_quant/fq_output_0/input_low" type="Const" version="opset1">
			<data element_type="f32" shape="" offset="23972884" size="4" />
			<output>
				<port id="0" precision="FP32" />
			</output>
		</layer>
		<layer id="35" name="__module.embeddings.LayerNorm/aten::layer_norm/Add_0_0/nncf_smooth_quant/fq_output_0/input_high" type="Const" version="opset1">
			<data element_type="f32" shape="" offset="23972888" size="4" />
			<output>
				<port id="0" precision="FP32" />
			</output>
		</layer>
		<layer id="36" name="__module.embeddings.LayerNorm/aten::layer_norm/Add_0_0/nncf_smooth_quant/fq_output_0/output_low" type="Const" version="opset1">
			<data element_type="f32" shape="" offset="23972884" size="4" />
			<output>
				<port id="0" precision="FP32" />
			</output>
		</layer>
		<layer id="37" name="__module.embeddings.LayerNorm/aten::layer_norm/Add_0_0/nncf_smooth_quant/fq_output_0/output_high" type="Const" version="opset1">
			<data element_type="f32" shape="" offset="23972888" size="4" />
			<output>
				<port id="0" precision="FP32" />
			</output>
		</layer>
		<layer id="38" name="__module.embeddings.LayerNorm/aten::layer_norm/Add_0_0/nncf_smooth_quant/fq_output_0" type="FakeQuantize" version="opset1">
			<data levels="256" auto_broadcast="numpy" />
			<input>
				<port id="0" precision="FP32">
					<dim>-1</dim>
					<dim>-1</dim>
					<dim>768</dim>
				</port>
				<port id="1" precision="FP32" />
				<port id="2" precision="FP32" />
				<port id="3" precision="FP32" />
				<port id="4" precision="FP32" />
			</input>
			<output>
				<port id="5" precision="FP32">
					<dim>-1</dim>
					<dim>-1</dim>
					<dim>768</dim>
				</port>
			</output>
		</layer>
		<layer id="39" name="Constant_4001754" type="Const" version="opset1">
			<data element_type="i8" shape="768, 768" offset="23972892" size="589824" />
			<output>
				<port id="0" precision="I8">
					<dim>768</dim>
					<dim>768</dim>
				</port>
			</output>
		</layer>
		<layer id="40" name="Convert_4001755" type="Convert" version="opset1">
			<data destination_type="f32" />
			<input>
				<port id="0" precision="I8">
					<dim>768</dim>
					<dim>768</dim>
				</port>
			</input>
			<output>
				<port id="1" precision="FP32">
					<dim>768</dim>
					<dim>768</dim>
				</port>
			</output>
		</layer>
		<layer id="41" name="Constant_4001756" type="Const" version="opset1">
			<data element_type="f32" shape="768, 1" offset="24562716" size="3072" />
			<output>
				<port id="0" precision="FP32">
					<dim>768</dim>
					<dim>1</dim>
				</port>
			</output>
		</layer>
		<layer id="42" name="__module.encoder.layer.0.attention.attn.q/aten::linear/MatMul/fq_weights_1" type="Multiply" version="opset1">
			<data auto_broadcast="numpy" />
			<input>
				<port id="0" precision="FP32">
					<dim>768</dim>
					<dim>768</dim>
				</port>
				<port id="1" precision="FP32">
					<dim>768</dim>
					<dim>1</dim>
				</port>
			</input>
			<output>
				<port id="2" precision="FP32">
					<dim>768</dim>
					<dim>768</dim>
				</port>
			</output>
		</layer>
		<layer id="43" name="__module.encoder.layer.0.attention.attn.q/aten::linear/MatMul" type="MatMul" version="opset1">
			<data transpose_a="false" transpose_b="true" />
			<input>
				<port id="0" precision="FP32">
					<dim>-1</dim>
					<dim>-1</dim>
					<dim>768</dim>
				</port>
				<port id="1" precision="FP32">
					<dim>768</dim>
					<dim>768</dim>
				</port>
			</input>
			<output>
				<port id="2" precision="FP32">
					<dim>-1</dim>
					<dim>-1</dim>
					<dim>768</dim>
				</port>
			</output>
		</layer>
		<layer id="44" name="Constant_530431" type="Const" version="opset1">
			<data element_type="f32" shape="1, 1, 768" offset="24565788" size="3072" />
			<output>
				<port id="0" precision="FP32">
					<dim>1</dim>
					<dim>1</dim>
					<dim>768</dim>
				</port>
			</output>
		</layer>
		<layer id="45" name="__module.encoder.layer.0.attention.attn.q/aten::linear/Add" type="Add" version="opset1">
			<data auto_broadcast="numpy" />
			<input>
				<port id="0" precision="FP32">
					<dim>-1</dim>
					<dim>-1</dim>
					<dim>768</dim>
				</port>
				<port id="1" precision="FP32">
					<dim>1</dim>
					<dim>1</dim>
					<dim>768</dim>
				</port>
			</input>
			<output>
				<port id="2" precision="FP32" names="164,x.3">
					<dim>-1</dim>
					<dim>-1</dim>
					<dim>768</dim>
				</port>
			</output>
		</layer>
		<layer id="46" name="__module.encoder.layer.0.attention.attn.q/aten::linear/Add/fq_output_0/input_low" type="Const" version="opset1">
			<data element_type="f32" shape="" offset="24568860" size="4" />
			<output>
				<port id="0" precision="FP32" />
			</output>
		</layer>
		<layer id="47" name="__module.encoder.layer.0.attention.attn.q/aten::linear/Add/fq_output_0/input_high" type="Const" version="opset1">
			<data element_type="f32" shape="" offset="24568864" size="4" />
			<output>
				<port id="0" precision="FP32" />
			</output>
		</layer>
		<layer id="48" name="__module.encoder.layer.0.attention.attn.q/aten::linear/Add/fq_output_0/output_low" type="Const" version="opset1">
			<data element_type="f32" shape="" offset="24568860" size="4" />
			<output>
				<port id="0" precision="FP32" />
			</output>
		</layer>
		<layer id="49" name="__module.encoder.layer.0.attention.attn.q/aten::linear/Add/fq_output_0/output_high" type="Const" version="opset1">
			<data element_type="f32" shape="" offset="24568864" size="4" />
			<output>
				<port id="0" precision="FP32" />
			</output>
		</layer>
		<layer id="50" name="__module.encoder.layer.0.attention.attn.q/aten::linear/Add/fq_output_0" type="FakeQuantize" version="opset1">
			<data levels="256" auto_broadcast="numpy" />
			<input>
				<port id="0" precision="FP32">
					<dim>-1</dim>
					<dim>-1</dim>
					<dim>768</dim>
				</port>
				<port id="1" precision="FP32" />
				<port id="2" precision="FP32" />
				<port id="3" precision="FP32" />
				<port id="4" precision="FP32" />
			</input>
			<output>
				<port id="5" precision="FP32">
					<dim>-1</dim>
					<dim>-1</dim>
					<dim>768</dim>
				</port>
			</output>
		</layer>
		<layer id="51" name="__module.encoder.layer.0.attention.attn/prim::ListConstruct/Concat" type="Const" version="opset1">
			<data element_type="i64" shape="4" offset="24568868" size="32" />
			<output>
				<port id="0" precision="I64">
					<dim>4</dim>
				</port>
			</output>
		</layer>
		<layer id="52" name="__module.encoder.layer.0.attention.attn/aten::view/Reshape" type="Reshape" version="opset1">
			<data special_zero="true" />
			<input>
				<port id="0" precision="FP32">
					<dim>-1</dim>
					<dim>-1</dim>
					<dim>768</dim>
				</port>
				<port id="1" precision="I64">
					<dim>4</dim>
				</port>
			</input>
			<output>
				<port id="2" precision="FP32" names="174,x.5">
					<dim>-1</dim>
					<dim>-1</dim>
					<dim>12</dim>
					<dim>64</dim>
				</port>
			</output>
		</layer>
		<layer id="53" name="Constant_521644" type="Const" version="opset1">
			<data element_type="i64" shape="4" offset="24568900" size="32" />
			<output>
				<port id="0" precision="I64" names="175">
					<dim>4</dim>
				</port>
			</output>
		</layer>
		<layer id="54" name="__module.encoder.layer.0.attention.attn/aten::permute/Transpose" type="Transpose" version="opset1">
			<input>
				<port id="0" precision="FP32">
					<dim>-1</dim>
					<dim>-1</dim>
					<dim>12</dim>
					<dim>64</dim>
				</port>
				<port id="1" precision="I64">
					<dim>4</dim>
				</port>
			</input>
			<output>
				<port id="2" precision="FP32" names="176">
					<dim>-1</dim>
					<dim>12</dim>
					<dim>-1</dim>
					<dim>64</dim>
				</port>
			</output>
		</layer>
		<layer id="55" name="Constant_4001758" type="Const" version="opset1">
			<data element_type="i8" shape="768, 768" offset="24568932" size="589824" />
			<output>
				<port id="0" precision="I8">
					<dim>768</dim>
					<dim>768</dim>
				</port>
			</output>
		</layer>
		<layer id="56" name="Convert_4001759" type="Convert" version="opset1">
			<data destination_type="f32" />
			<input>
				<port id="0" precision="I8">
					<dim>768</dim>
					<dim>768</dim>
				</port>
			</input>
			<output>
				<port id="1" precision="FP32">
					<dim>768</dim>
					<dim>768</dim>
				</port>
			</output>
		</layer>
		<layer id="57" name="Constant_4001760" type="Const" version="opset1">
			<data element_type="f32" shape="768, 1" offset="25158756" size="3072" />
			<output>
				<port id="0" precision="FP32">
					<dim>768</dim>
					<dim>1</dim>
				</port>
			</output>
		</layer>
		<layer id="58" name="__module.encoder.layer.0.attention.attn.k/aten::linear/MatMul/fq_weights_1" type="Multiply" version="opset1">
			<data auto_broadcast="numpy" />
			<input>
				<port id="0" precision="FP32">
					<dim>768</dim>
					<dim>768</dim>
				</port>
				<port id="1" precision="FP32">
					<dim>768</dim>
					<dim>1</dim>
				</port>
			</input>
			<output>
				<port id="2" precision="FP32">
					<dim>768</dim>
					<dim>768</dim>
				</port>
			</output>
		</layer>
		<layer id="59" name="__module.encoder.layer.0.attention.attn.k/aten::linear/MatMul" type="MatMul" version="opset1">
			<data transpose_a="false" transpose_b="true" />
			<input>
				<port id="0" precision="FP32">
					<dim>-1</dim>
					<dim>-1</dim>
					<dim>768</dim>
				</port>
				<port id="1" precision="FP32">
					<dim>768</dim>
					<dim>768</dim>
				</port>
			</input>
			<output>
				<port id="2" precision="FP32">
					<dim>-1</dim>
					<dim>-1</dim>
					<dim>768</dim>
				</port>
			</output>
		</layer>
		<layer id="60" name="Constant_530432" type="Const" version="opset1">
			<data element_type="f32" shape="1, 1, 768" offset="25161828" size="3072" />
			<output>
				<port id="0" precision="FP32">
					<dim>1</dim>
					<dim>1</dim>
					<dim>768</dim>
				</port>
			</output>
		</layer>
		<layer id="61" name="__module.encoder.layer.0.attention.attn.k/aten::linear/Add" type="Add" version="opset1">
			<data auto_broadcast="numpy" />
			<input>
				<port id="0" precision="FP32">
					<dim>-1</dim>
					<dim>-1</dim>
					<dim>768</dim>
				</port>
				<port id="1" precision="FP32">
					<dim>1</dim>
					<dim>1</dim>
					<dim>768</dim>
				</port>
			</input>
			<output>
				<port id="2" precision="FP32" names="167,x.7">
					<dim>-1</dim>
					<dim>-1</dim>
					<dim>768</dim>
				</port>
			</output>
		</layer>
		<layer id="62" name="__module.encoder.layer.0.attention.attn.k/aten::linear/Add/fq_output_0/input_low" type="Const" version="opset1">
			<data element_type="f32" shape="" offset="25164900" size="4" />
			<output>
				<port id="0" precision="FP32" />
			</output>
		</layer>
		<layer id="63" name="__module.encoder.layer.0.attention.attn.k/aten::linear/Add/fq_output_0/input_high" type="Const" version="opset1">
			<data element_type="f32" shape="" offset="25164904" size="4" />
			<output>
				<port id="0" precision="FP32" />
			</output>
		</layer>
		<layer id="64" name="__module.encoder.layer.0.attention.attn.k/aten::linear/Add/fq_output_0/output_low" type="Const" version="opset1">
			<data element_type="f32" shape="" offset="25164900" size="4" />
			<output>
				<port id="0" precision="FP32" />
			</output>
		</layer>
		<layer id="65" name="__module.encoder.layer.0.attention.attn.k/aten::linear/Add/fq_output_0/output_high" type="Const" version="opset1">
			<data element_type="f32" shape="" offset="25164904" size="4" />
			<output>
				<port id="0" precision="FP32" />
			</output>
		</layer>
		<layer id="66" name="__module.encoder.layer.0.attention.attn.k/aten::linear/Add/fq_output_0" type="FakeQuantize" version="opset1">
			<data levels="256" auto_broadcast="numpy" />
			<input>
				<port id="0" precision="FP32">
					<dim>-1</dim>
					<dim>-1</dim>
					<dim>768</dim>
				</port>
				<port id="1" precision="FP32" />
				<port id="2" precision="FP32" />
				<port id="3" precision="FP32" />
				<port id="4" precision="FP32" />
			</input>
			<output>
				<port id="5" precision="FP32">
					<dim>-1</dim>
					<dim>-1</dim>
					<dim>768</dim>
				</port>
			</output>
		</layer>
		<layer id="67" name="__module.encoder.layer.0.attention.attn/prim::ListConstruct/Concat_1" type="Const" version="opset1">
			<data element_type="i64" shape="4" offset="24568868" size="32" />
			<output>
				<port id="0" precision="I64">
					<dim>4</dim>
				</port>
			</output>
		</layer>
		<layer id="68" name="__module.encoder.layer.0.attention.attn/aten::view/Reshape_1" type="Reshape" version="opset1">
			<data special_zero="true" />
			<input>
				<port id="0" precision="FP32">
					<dim>-1</dim>
					<dim>-1</dim>
					<dim>768</dim>
				</port>
				<port id="1" precision="I64">
					<dim>4</dim>
				</port>
			</input>
			<output>
				<port id="2" precision="FP32" names="180,x.9">
					<dim>-1</dim>
					<dim>-1</dim>
					<dim>12</dim>
					<dim>64</dim>
				</port>
			</output>
		</layer>
		<layer id="69" name="Constant_521663" type="Const" version="opset1">
			<data element_type="i64" shape="4" offset="24568900" size="32" />
			<output>
				<port id="0" precision="I64" names="181">
					<dim>4</dim>
				</port>
			</output>
		</layer>
		<layer id="70" name="__module.encoder.layer.0.attention.attn/aten::permute/Transpose_1" type="Transpose" version="opset1">
			<input>
				<port id="0" precision="FP32">
					<dim>-1</dim>
					<dim>-1</dim>
					<dim>12</dim>
					<dim>64</dim>
				</port>
				<port id="1" precision="I64">
					<dim>4</dim>
				</port>
			</input>
			<output>
				<port id="2" precision="FP32" names="182,k.1">
					<dim>-1</dim>
					<dim>12</dim>
					<dim>-1</dim>
					<dim>64</dim>
				</port>
			</output>
		</layer>
		<layer id="71" name="__module.encoder.layer.0.attention.attn/aten::matmul/MatMul" type="MatMul" version="opset1">
			<data transpose_a="false" transpose_b="true" />
			<input>
				<port id="0" precision="FP32">
					<dim>-1</dim>
					<dim>12</dim>
					<dim>-1</dim>
					<dim>64</dim>
				</port>
				<port id="1" precision="FP32">
					<dim>-1</dim>
					<dim>12</dim>
					<dim>-1</dim>
					<dim>64</dim>
				</port>
			</input>
			<output>
				<port id="2" precision="FP32" names="190,attention_scores.1">
					<dim>-1</dim>
					<dim>12</dim>
					<dim>-1</dim>
					<dim>-1</dim>
				</port>
			</output>
		</layer>
		<layer id="72" name="Constant_530433" type="Const" version="opset1">
			<data element_type="f32" shape="1, 1, 1, 1" offset="25164908" size="4" />
			<output>
				<port id="0" precision="FP32">
					<dim>1</dim>
					<dim>1</dim>
					<dim>1</dim>
					<dim>1</dim>
				</port>
			</output>
		</layer>
		<layer id="73" name="__module.encoder.layer.0.attention.attn/aten::div/Divide" type="Divide" version="opset1">
			<data auto_broadcast="numpy" m_pythondiv="true" />
			<input>
				<port id="0" precision="FP32">
					<dim>-1</dim>
					<dim>12</dim>
					<dim>-1</dim>
					<dim>-1</dim>
				</port>
				<port id="1" precision="FP32">
					<dim>1</dim>
					<dim>1</dim>
					<dim>1</dim>
					<dim>1</dim>
				</port>
			</input>
			<output>
				<port id="2" precision="FP32" names="191_1">
					<dim>-1</dim>
					<dim>12</dim>
					<dim>-1</dim>
					<dim>-1</dim>
				</port>
			</output>
		</layer>
		<layer id="74" name="Constant_4001762" type="Const" version="opset1">
			<data element_type="i8" shape="32, 12" offset="25164912" size="384" />
			<output>
				<port id="0" precision="I8">
					<dim>32</dim>
					<dim>12</dim>
				</port>
			</output>
		</layer>
		<layer id="75" name="Convert_4001763" type="Convert" version="opset1">
			<data destination_type="f32" />
			<input>
				<port id="0" precision="I8">
					<dim>32</dim>
					<dim>12</dim>
				</port>
			</input>
			<output>
				<port id="1" precision="FP32">
					<dim>32</dim>
					<dim>12</dim>
				</port>
			</output>
		</layer>
		<layer id="76" name="Constant_4001764" type="Const" version="opset1">
			<data element_type="f32" shape="32, 1" offset="25165296" size="128" />
			<output>
				<port id="0" precision="FP32">
					<dim>32</dim>
					<dim>1</dim>
				</port>
			</output>
		</layer>
		<layer id="77" name="__module.encoder.relative_attention_bias/aten::embedding/Gather/fq_weights_0" type="Multiply" version="opset1">
			<data auto_broadcast="numpy" />
			<input>
				<port id="0" precision="FP32">
					<dim>32</dim>
					<dim>12</dim>
				</port>
				<port id="1" precision="FP32">
					<dim>32</dim>
					<dim>1</dim>
				</port>
			</input>
			<output>
				<port id="2" precision="FP32">
					<dim>32</dim>
					<dim>12</dim>
				</port>
			</output>
		</layer>
		<layer id="78" name="__module.encoder/aten::arange/Constant_2" type="Const" version="opset1">
			<data element_type="i32" shape="" offset="23566844" size="4" />
			<output>
				<port id="0" precision="I32" />
			</output>
		</layer>
		<layer id="79" name="ShapeOf_530636" type="ShapeOf" version="opset3">
			<data output_type="i64" />
			<input>
				<port id="0" precision="FP32">
					<dim>-1</dim>
					<dim>-1</dim>
					<dim>768</dim>
				</port>
			</input>
			<output>
				<port id="1" precision="I64">
					<dim>3</dim>
				</port>
			</output>
		</layer>
		<layer id="80" name="Constant_530637" type="Const" version="opset1">
			<data element_type="i64" shape="" offset="23963656" size="8" />
			<output>
				<port id="0" precision="I64" />
			</output>
		</layer>
		<layer id="81" name="Constant_530638" type="Const" version="opset1">
			<data element_type="i64" shape="" offset="25165424" size="8" />
			<output>
				<port id="0" precision="I64" />
			</output>
		</layer>
		<layer id="82" name="Gather_530639" type="Gather" version="opset8">
			<data batch_dims="0" />
			<input>
				<port id="0" precision="I64">
					<dim>3</dim>
				</port>
				<port id="1" precision="I64" />
				<port id="2" precision="I64" />
			</input>
			<output>
				<port id="3" precision="I64" names="117,118" />
			</output>
		</layer>
		<layer id="83" name="__module.encoder/aten::arange/Constant_3" type="Const" version="opset1">
			<data element_type="i32" shape="" offset="25165432" size="4" />
			<output>
				<port id="0" precision="I32" />
			</output>
		</layer>
		<layer id="84" name="__module.encoder/aten::arange/Range_1" type="Range" version="opset4">
			<data output_type="i64" />
			<input>
				<port id="0" precision="I32" />
				<port id="1" precision="I64" />
				<port id="2" precision="I32" />
			</input>
			<output>
				<port id="3" precision="I64" names="119,120,122">
					<dim>-1</dim>
				</port>
			</output>
		</layer>
		<layer id="85" name="90" type="Const" version="opset1">
			<data element_type="i64" shape="" offset="25165424" size="8" />
			<output>
				<port id="0" precision="I64" names="90" />
			</output>
		</layer>
		<layer id="86" name="__module.encoder/aten::unsqueeze/Unsqueeze" type="Unsqueeze" version="opset1">
			<input>
				<port id="0" precision="I64">
					<dim>-1</dim>
				</port>
				<port id="1" precision="I64" />
			</input>
			<output>
				<port id="2" precision="I64" names="123,124,memory_position">
					<dim>1</dim>
					<dim>-1</dim>
				</port>
			</output>
		</layer>
		<layer id="87" name="89" type="Const" version="opset1">
			<data element_type="i64" shape="" offset="23963656" size="8" />
			<output>
				<port id="0" precision="I64" names="89" />
			</output>
		</layer>
		<layer id="88" name="__module.encoder/aten::unsqueeze/Unsqueeze_1" type="Unsqueeze" version="opset1">
			<input>
				<port id="0" precision="I64">
					<dim>-1</dim>
				</port>
				<port id="1" precision="I64" />
			</input>
			<output>
				<port id="2" precision="I64" names="121,context_position">
					<dim>-1</dim>
					<dim>1</dim>
				</port>
			</output>
		</layer>
		<layer id="89" name="__module.encoder/aten::sub/Subtract" type="Subtract" version="opset1">
			<data auto_broadcast="numpy" />
			<input>
				<port id="0" precision="I64">
					<dim>1</dim>
					<dim>-1</dim>
				</port>
				<port id="1" precision="I64">
					<dim>-1</dim>
					<dim>1</dim>
				</port>
			</input>
			<output>
				<port id="2" precision="I64" names="125,relative_position">
					<dim>-1</dim>
					<dim>-1</dim>
				</port>
			</output>
		</layer>
		<layer id="90" name="Constant_530434" type="Const" version="opset1">
			<data element_type="i64" shape="1, 1" offset="25165436" size="8" />
			<output>
				<port id="0" precision="I64">
					<dim>1</dim>
					<dim>1</dim>
				</port>
			</output>
		</layer>
		<layer id="91" name="__module.encoder/aten::neg/Multiply" type="Multiply" version="opset1">
			<data auto_broadcast="numpy" />
			<input>
				<port id="0" precision="I64">
					<dim>-1</dim>
					<dim>-1</dim>
				</port>
				<port id="1" precision="I64">
					<dim>1</dim>
					<dim>1</dim>
				</port>
			</input>
			<output>
				<port id="2" precision="I64" names="126,n.1">
					<dim>-1</dim>
					<dim>-1</dim>
				</port>
			</output>
		</layer>
		<layer id="92" name="Constant_530435" type="Const" version="opset1">
			<data element_type="i64" shape="1, 1" offset="25165424" size="8" />
			<output>
				<port id="0" precision="I64">
					<dim>1</dim>
					<dim>1</dim>
				</port>
			</output>
		</layer>
		<layer id="93" name="__module.encoder/aten::lt/Less" type="Less" version="opset1">
			<data auto_broadcast="numpy" />
			<input>
				<port id="0" precision="I64">
					<dim>-1</dim>
					<dim>-1</dim>
				</port>
				<port id="1" precision="I64">
					<dim>1</dim>
					<dim>1</dim>
				</port>
			</input>
			<output>
				<port id="2" precision="BOOL" names="127">
					<dim>-1</dim>
					<dim>-1</dim>
				</port>
			</output>
		</layer>
		<layer id="94" name="__module.encoder/aten::to/Convert" type="Convert" version="opset1">
			<data destination_type="i64" />
			<input>
				<port id="0" precision="BOOL">
					<dim>-1</dim>
					<dim>-1</dim>
				</port>
			</input>
			<output>
				<port id="1" precision="I64" names="128">
					<dim>-1</dim>
					<dim>-1</dim>
				</port>
			</output>
		</layer>
		<layer id="95" name="Constant_530436" type="Const" version="opset1">
			<data element_type="i64" shape="1, 1" offset="25165444" size="8" />
			<output>
				<port id="0" precision="I64">
					<dim>1</dim>
					<dim>1</dim>
				</port>
			</output>
		</layer>
		<layer id="96" name="__module.encoder/aten::mul/Multiply" type="Multiply" version="opset1">
			<data auto_broadcast="numpy" />
			<input>
				<port id="0" precision="I64">
					<dim>-1</dim>
					<dim>-1</dim>
				</port>
				<port id="1" precision="I64">
					<dim>1</dim>
					<dim>1</dim>
				</port>
			</input>
			<output>
				<port id="2" precision="I64" names="129,130_1">
					<dim>-1</dim>
					<dim>-1</dim>
				</port>
			</output>
		</layer>
		<layer id="97" name="__module.encoder/aten::abs/Abs" type="Abs" version="opset1">
			<input>
				<port id="0" precision="I64">
					<dim>-1</dim>
					<dim>-1</dim>
				</port>
			</input>
			<output>
				<port id="1" precision="I64" names="131,n">
					<dim>-1</dim>
					<dim>-1</dim>
				</port>
			</output>
		</layer>
		<layer id="98" name="Constant_530437" type="Const" version="opset1">
			<data element_type="i64" shape="1, 1" offset="25165452" size="8" />
			<output>
				<port id="0" precision="I64">
					<dim>1</dim>
					<dim>1</dim>
				</port>
			</output>
		</layer>
		<layer id="99" name="__module.encoder/aten::lt/Less_1" type="Less" version="opset1">
			<data auto_broadcast="numpy" />
			<input>
				<port id="0" precision="I64">
					<dim>-1</dim>
					<dim>-1</dim>
				</port>
				<port id="1" precision="I64">
					<dim>1</dim>
					<dim>1</dim>
				</port>
			</input>
			<output>
				<port id="2" precision="BOOL" names="132">
					<dim>-1</dim>
					<dim>-1</dim>
				</port>
			</output>
		</layer>
		<layer id="100" name="__module.encoder/aten::to/Convert_1" type="Convert" version="opset1">
			<data destination_type="f32" />
			<input>
				<port id="0" precision="I64">
					<dim>-1</dim>
					<dim>-1</dim>
				</port>
			</input>
			<output>
				<port id="1" precision="FP32" names="133">
					<dim>-1</dim>
					<dim>-1</dim>
				</port>
			</output>
		</layer>
		<layer id="101" name="Constant_530438" type="Const" version="opset1">
			<data element_type="f32" shape="1, 1" offset="25164908" size="4" />
			<output>
				<port id="0" precision="FP32">
					<dim>1</dim>
					<dim>1</dim>
				</port>
			</output>
		</layer>
		<layer id="102" name="__module.encoder/aten::div/Divide" type="Divide" version="opset1">
			<data auto_broadcast="numpy" m_pythondiv="true" />
			<input>
				<port id="0" precision="FP32">
					<dim>-1</dim>
					<dim>-1</dim>
				</port>
				<port id="1" precision="FP32">
					<dim>1</dim>
					<dim>1</dim>
				</port>
			</input>
			<output>
				<port id="2" precision="FP32" names="134">
					<dim>-1</dim>
					<dim>-1</dim>
				</port>
			</output>
		</layer>
		<layer id="103" name="__module.encoder/aten::log/Log" type="Log" version="opset1">
			<input>
				<port id="0" precision="FP32">
					<dim>-1</dim>
					<dim>-1</dim>
				</port>
			</input>
			<output>
				<port id="1" precision="FP32" names="135">
					<dim>-1</dim>
					<dim>-1</dim>
				</port>
			</output>
		</layer>
		<layer id="104" name="Constant_530439" type="Const" version="opset1">
			<data element_type="f32" shape="1, 1" offset="25165460" size="4" />
			<output>
				<port id="0" precision="FP32">
					<dim>1</dim>
					<dim>1</dim>
				</port>
			</output>
		</layer>
		<layer id="105" name="__module.encoder/aten::div/Divide_1" type="Divide" version="opset1">
			<data auto_broadcast="numpy" m_pythondiv="true" />
			<input>
				<port id="0" precision="FP32">
					<dim>-1</dim>
					<dim>-1</dim>
				</port>
				<port id="1" precision="FP32">
					<dim>1</dim>
					<dim>1</dim>
				</port>
			</input>
			<output>
				<port id="2" precision="FP32" names="136">
					<dim>-1</dim>
					<dim>-1</dim>
				</port>
			</output>
		</layer>
		<layer id="106" name="Constant_530440" type="Const" version="opset1">
			<data element_type="f32" shape="1, 1" offset="25164908" size="4" />
			<output>
				<port id="0" precision="FP32">
					<dim>1</dim>
					<dim>1</dim>
				</port>
			</output>
		</layer>
		<layer id="107" name="__module.encoder/aten::mul/Multiply_1" type="Multiply" version="opset1">
			<data auto_broadcast="numpy" />
			<input>
				<port id="0" precision="FP32">
					<dim>-1</dim>
					<dim>-1</dim>
				</port>
				<port id="1" precision="FP32">
					<dim>1</dim>
					<dim>1</dim>
				</port>
			</input>
			<output>
				<port id="2" precision="FP32" names="137">
					<dim>-1</dim>
					<dim>-1</dim>
				</port>
			</output>
		</layer>
		<layer id="108" name="__module.encoder/aten::to/Convert_2" type="Convert" version="opset1">
			<data destination_type="i64" />
			<input>
				<port id="0" precision="FP32">
					<dim>-1</dim>
					<dim>-1</dim>
				</port>
			</input>
			<output>
				<port id="1" precision="I64" names="138">
					<dim>-1</dim>
					<dim>-1</dim>
				</port>
			</output>
		</layer>
		<layer id="109" name="Constant_530441" type="Const" version="opset1">
			<data element_type="i64" shape="1, 1" offset="25165452" size="8" />
			<output>
				<port id="0" precision="I64">
					<dim>1</dim>
					<dim>1</dim>
				</port>
			</output>
		</layer>
		<layer id="110" name="__module.encoder/aten::add/Add_1" type="Add" version="opset1">
			<data auto_broadcast="numpy" />
			<input>
				<port id="0" precision="I64">
					<dim>-1</dim>
					<dim>-1</dim>
				</port>
				<port id="1" precision="I64">
					<dim>1</dim>
					<dim>1</dim>
				</port>
			</input>
			<output>
				<port id="2" precision="I64" names="139">
					<dim>-1</dim>
					<dim>-1</dim>
				</port>
			</output>
		</layer>
		<layer id="111" name="Constant_530442" type="Const" version="opset1">
			<data element_type="i64" shape="1, 1" offset="25165464" size="8" />
			<output>
				<port id="0" precision="I64">
					<dim>1</dim>
					<dim>1</dim>
				</port>
			</output>
		</layer>
		<layer id="112" name="__module.encoder/aten::min/Minimum" type="Minimum" version="opset1">
			<data auto_broadcast="numpy" />
			<input>
				<port id="0" precision="I64">
					<dim>-1</dim>
					<dim>-1</dim>
				</port>
				<port id="1" precision="I64">
					<dim>1</dim>
					<dim>1</dim>
				</port>
			</input>
			<output>
				<port id="2" precision="I64" names="141">
					<dim>-1</dim>
					<dim>-1</dim>
				</port>
			</output>
		</layer>
		<layer id="113" name="__module.encoder/aten::where/Select" type="Select" version="opset1">
			<data auto_broadcast="numpy" />
			<input>
				<port id="0" precision="BOOL">
					<dim>-1</dim>
					<dim>-1</dim>
				</port>
				<port id="1" precision="I64">
					<dim>-1</dim>
					<dim>-1</dim>
				</port>
				<port id="2" precision="I64">
					<dim>-1</dim>
					<dim>-1</dim>
				</port>
			</input>
			<output>
				<port id="3" precision="I64" names="142">
					<dim>-1</dim>
					<dim>-1</dim>
				</port>
			</output>
		</layer>
		<layer id="114" name="__module.encoder/aten::add_/Add" type="Add" version="opset1">
			<data auto_broadcast="numpy" />
			<input>
				<port id="0" precision="I64">
					<dim>-1</dim>
					<dim>-1</dim>
				</port>
				<port id="1" precision="I64">
					<dim>-1</dim>
					<dim>-1</dim>
				</port>
			</input>
			<output>
				<port id="2" precision="I64" names="130,144,ret">
					<dim>-1</dim>
					<dim>-1</dim>
				</port>
			</output>
		</layer>
		<layer id="115" name="__module.encoder.relative_attention_bias/aten::embedding/Convert" type="Convert" version="opset1">
			<data destination_type="i32" />
			<input>
				<port id="0" precision="I64">
					<dim>-1</dim>
					<dim>-1</dim>
				</port>
			</input>
			<output>
				<port id="1" precision="I32">
					<dim>-1</dim>
					<dim>-1</dim>
				</port>
			</output>
		</layer>
		<layer id="116" name="__module.encoder.relative_attention_bias/aten::embedding/Constant" type="Const" version="opset1">
			<data element_type="i32" shape="" offset="23566844" size="4" />
			<output>
				<port id="0" precision="I32" />
			</output>
		</layer>
		<layer id="117" name="__module.encoder.relative_attention_bias/aten::embedding/Gather" type="Gather" version="opset8">
			<data batch_dims="0" />
			<input>
				<port id="0" precision="FP32">
					<dim>32</dim>
					<dim>12</dim>
				</port>
				<port id="1" precision="I32">
					<dim>-1</dim>
					<dim>-1</dim>
				</port>
				<port id="2" precision="I32" />
			</input>
			<output>
				<port id="3" precision="FP32" names="146,values.1">
					<dim>-1</dim>
					<dim>-1</dim>
					<dim>12</dim>
				</port>
			</output>
		</layer>
		<layer id="118" name="Constant_521590" type="Const" version="opset1">
			<data element_type="i64" shape="3" offset="25165472" size="24" />
			<output>
				<port id="0" precision="I64" names="147">
					<dim>3</dim>
				</port>
			</output>
		</layer>
		<layer id="119" name="__module.encoder/aten::permute/Transpose" type="Transpose" version="opset1">
			<input>
				<port id="0" precision="FP32">
					<dim>-1</dim>
					<dim>-1</dim>
					<dim>12</dim>
				</port>
				<port id="1" precision="I64">
					<dim>3</dim>
				</port>
			</input>
			<output>
				<port id="2" precision="FP32" names="148">
					<dim>12</dim>
					<dim>-1</dim>
					<dim>-1</dim>
				</port>
			</output>
		</layer>
		<layer id="120" name="__module.encoder/aten::unsqueeze/Unsqueeze_2" type="Unsqueeze" version="opset1">
			<input>
				<port id="0" precision="FP32">
					<dim>12</dim>
					<dim>-1</dim>
					<dim>-1</dim>
				</port>
				<port id="1" precision="I64" />
			</input>
			<output>
				<port id="2" precision="FP32" names="149,values">
					<dim>1</dim>
					<dim>12</dim>
					<dim>-1</dim>
					<dim>-1</dim>
				</port>
			</output>
		</layer>
		<layer id="121" name="Constant_530642" type="Const" version="opset1">
			<data element_type="i64" shape="1" offset="25165424" size="8" />
			<output>
				<port id="0" precision="I64">
					<dim>1</dim>
				</port>
			</output>
		</layer>
		<layer id="122" name="Constant_530643" type="Const" version="opset1">
			<data element_type="i64" shape="" offset="25165424" size="8" />
			<output>
				<port id="0" precision="I64" />
			</output>
		</layer>
		<layer id="123" name="Gather_530644" type="Gather" version="opset8">
			<data batch_dims="0" />
			<input>
				<port id="0" precision="I64">
					<dim>3</dim>
				</port>
				<port id="1" precision="I64">
					<dim>1</dim>
				</port>
				<port id="2" precision="I64" />
			</input>
			<output>
				<port id="3" precision="I64" names="116">
					<dim>1</dim>
				</port>
			</output>
		</layer>
		<layer id="124" name="Constant_529075" type="Const" version="opset1">
			<data element_type="i64" shape="1" offset="23963656" size="8" />
			<output>
				<port id="0" precision="I64">
					<dim>1</dim>
				</port>
			</output>
		</layer>
		<layer id="125" name="Constant_3553458" type="Const" version="opset1">
			<data element_type="i64" shape="1" offset="25165436" size="8" />
			<output>
				<port id="0" precision="I64">
					<dim>1</dim>
				</port>
			</output>
		</layer>
		<layer id="126" name="Reshape_530647" type="Reshape" version="opset1">
			<data special_zero="false" />
			<input>
				<port id="0" precision="I64" />
				<port id="1" precision="I64">
					<dim>1</dim>
				</port>
			</input>
			<output>
				<port id="2" precision="I64">
					<dim>1</dim>
				</port>
			</output>
		</layer>
		<layer id="127" name="__module.encoder/prim::ListConstruct/Concat" type="Concat" version="opset1">
			<data axis="0" />
			<input>
				<port id="0" precision="I64">
					<dim>1</dim>
				</port>
				<port id="1" precision="I64">
					<dim>1</dim>
				</port>
				<port id="2" precision="I64">
					<dim>1</dim>
				</port>
				<port id="3" precision="I64">
					<dim>1</dim>
				</port>
			</input>
			<output>
				<port id="4" precision="I64" names="150">
					<dim>4</dim>
				</port>
			</output>
		</layer>
		<layer id="128" name="__module.encoder/aten::expand/Broadcast" type="Broadcast" version="opset3">
			<data mode="bidirectional" />
			<input>
				<port id="0" precision="FP32">
					<dim>1</dim>
					<dim>12</dim>
					<dim>-1</dim>
					<dim>-1</dim>
				</port>
				<port id="1" precision="I64">
					<dim>4</dim>
				</port>
			</input>
			<output>
				<port id="2" precision="FP32" names="151">
					<dim>-1</dim>
					<dim>12</dim>
					<dim>-1</dim>
					<dim>-1</dim>
				</port>
			</output>
		</layer>
		<layer id="129" name="__module.encoder.layer.0.attention.attn/aten::add_/Add" type="Add" version="opset1">
			<data auto_broadcast="numpy" />
			<input>
				<port id="0" precision="FP32">
					<dim>-1</dim>
					<dim>12</dim>
					<dim>-1</dim>
					<dim>-1</dim>
				</port>
				<port id="1" precision="FP32">
					<dim>-1</dim>
					<dim>12</dim>
					<dim>-1</dim>
					<dim>-1</dim>
				</port>
			</input>
			<output>
				<port id="2" precision="FP32" names="191,attention_scores.3">
					<dim>-1</dim>
					<dim>12</dim>
					<dim>-1</dim>
					<dim>-1</dim>
				</port>
			</output>
		</layer>
		<layer id="130" name="Constant_530444" type="Const" version="opset1">
			<data element_type="f32" shape="1, 1, 1, 1" offset="25165496" size="4" />
			<output>
				<port id="0" precision="FP32">
					<dim>1</dim>
					<dim>1</dim>
					<dim>1</dim>
					<dim>1</dim>
				</port>
			</output>
		</layer>
		<layer id="131" name="11" type="Const" version="opset1">
			<data element_type="i64" shape="" offset="23963656" size="8" />
			<output>
				<port id="0" precision="I64" names="11" />
			</output>
		</layer>
		<layer id="132" name="aten::unsqueeze/Unsqueeze" type="Unsqueeze" version="opset1">
			<input>
				<port id="0" precision="I64">
					<dim>-1</dim>
					<dim>-1</dim>
				</port>
				<port id="1" precision="I64" />
			</input>
			<output>
				<port id="2" precision="I64" names="12">
					<dim>-1</dim>
					<dim>1</dim>
					<dim>-1</dim>
				</port>
			</output>
		</layer>
		<layer id="133" name="13" type="Const" version="opset1">
			<data element_type="i64" shape="" offset="25165500" size="8" />
			<output>
				<port id="0" precision="I64" names="13" />
			</output>
		</layer>
		<layer id="134" name="aten::unsqueeze/Unsqueeze_1" type="Unsqueeze" version="opset1">
			<input>
				<port id="0" precision="I64">
					<dim>-1</dim>
					<dim>1</dim>
					<dim>-1</dim>
				</port>
				<port id="1" precision="I64" />
			</input>
			<output>
				<port id="2" precision="I64" names="14,19,extended_attention_mask">
					<dim>-1</dim>
					<dim>1</dim>
					<dim>1</dim>
					<dim>-1</dim>
				</port>
			</output>
		</layer>
		<layer id="135" name="aten::to/Convert" type="Convert" version="opset1">
			<data destination_type="f32" />
			<input>
				<port id="0" precision="I64">
					<dim>-1</dim>
					<dim>1</dim>
					<dim>1</dim>
					<dim>-1</dim>
				</port>
			</input>
			<output>
				<port id="1" precision="FP32" names="24">
					<dim>-1</dim>
					<dim>1</dim>
					<dim>1</dim>
					<dim>-1</dim>
				</port>
			</output>
		</layer>
		<layer id="136" name="Constant_530443" type="Const" version="opset1">
			<data element_type="f32" shape="1, 1, 1, 1" offset="25165496" size="4" />
			<output>
				<port id="0" precision="FP32">
					<dim>1</dim>
					<dim>1</dim>
					<dim>1</dim>
					<dim>1</dim>
				</port>
			</output>
		</layer>
		<layer id="137" name="aten::rsub/Multiply" type="Multiply" version="opset1">
			<data auto_broadcast="numpy" />
			<input>
				<port id="0" precision="FP32">
					<dim>-1</dim>
					<dim>1</dim>
					<dim>1</dim>
					<dim>-1</dim>
				</port>
				<port id="1" precision="FP32">
					<dim>1</dim>
					<dim>1</dim>
					<dim>1</dim>
					<dim>1</dim>
				</port>
			</input>
			<output>
				<port id="2" precision="FP32">
					<dim>-1</dim>
					<dim>1</dim>
					<dim>1</dim>
					<dim>-1</dim>
				</port>
			</output>
		</layer>
		<layer id="138" name="aten::rsub/Subtract" type="Subtract" version="opset1">
			<data auto_broadcast="numpy" />
			<input>
				<port id="0" precision="FP32">
					<dim>1</dim>
					<dim>1</dim>
					<dim>1</dim>
					<dim>1</dim>
				</port>
				<port id="1" precision="FP32">
					<dim>-1</dim>
					<dim>1</dim>
					<dim>1</dim>
					<dim>-1</dim>
				</port>
			</input>
			<output>
				<port id="2" precision="FP32" names="27">
					<dim>-1</dim>
					<dim>1</dim>
					<dim>1</dim>
					<dim>-1</dim>
				</port>
			</output>
		</layer>
		<layer id="139" name="Constant_530445" type="Const" version="opset1">
			<data element_type="f32" shape="1, 1, 1, 1" offset="25165508" size="4" />
			<output>
				<port id="0" precision="FP32">
					<dim>1</dim>
					<dim>1</dim>
					<dim>1</dim>
					<dim>1</dim>
				</port>
			</output>
		</layer>
		<layer id="140" name="aten::mul/Multiply" type="Multiply" version="opset1">
			<data auto_broadcast="numpy" />
			<input>
				<port id="0" precision="FP32">
					<dim>-1</dim>
					<dim>1</dim>
					<dim>1</dim>
					<dim>-1</dim>
				</port>
				<port id="1" precision="FP32">
					<dim>1</dim>
					<dim>1</dim>
					<dim>1</dim>
					<dim>1</dim>
				</port>
			</input>
			<output>
				<port id="2" precision="FP32" names="29,attention_mask">
					<dim>-1</dim>
					<dim>1</dim>
					<dim>1</dim>
					<dim>-1</dim>
				</port>
			</output>
		</layer>
		<layer id="141" name="__module.encoder.layer.0.attention.attn/aten::add/Add" type="Add" version="opset1">
			<data auto_broadcast="numpy" />
			<input>
				<port id="0" precision="FP32">
					<dim>-1</dim>
					<dim>12</dim>
					<dim>-1</dim>
					<dim>-1</dim>
				</port>
				<port id="1" precision="FP32">
					<dim>-1</dim>
					<dim>1</dim>
					<dim>1</dim>
					<dim>-1</dim>
				</port>
			</input>
			<output>
				<port id="2" precision="FP32" names="193,input.3">
					<dim>-1</dim>
					<dim>12</dim>
					<dim>-1</dim>
					<dim>-1</dim>
				</port>
			</output>
		</layer>
		<layer id="142" name="__module.encoder.layer.0.attention.attn/aten::softmax/Softmax" type="SoftMax" version="opset8">
			<data axis="-1" />
			<input>
				<port id="0" precision="FP32">
					<dim>-1</dim>
					<dim>12</dim>
					<dim>-1</dim>
					<dim>-1</dim>
				</port>
			</input>
			<output>
				<port id="1" precision="FP32" names="194,input.5">
					<dim>-1</dim>
					<dim>12</dim>
					<dim>-1</dim>
					<dim>-1</dim>
				</port>
			</output>
		</layer>
		<layer id="143" name="Constant_4001766" type="Const" version="opset1">
			<data element_type="i8" shape="768, 768" offset="25165512" size="589824" />
			<output>
				<port id="0" precision="I8">
					<dim>768</dim>
					<dim>768</dim>
				</port>
			</output>
		</layer>
		<layer id="144" name="Convert_4001767" type="Convert" version="opset1">
			<data destination_type="f32" />
			<input>
				<port id="0" precision="I8">
					<dim>768</dim>
					<dim>768</dim>
				</port>
			</input>
			<output>
				<port id="1" precision="FP32">
					<dim>768</dim>
					<dim>768</dim>
				</port>
			</output>
		</layer>
		<layer id="145" name="Constant_4001768" type="Const" version="opset1">
			<data element_type="f32" shape="768, 1" offset="25755336" size="3072" />
			<output>
				<port id="0" precision="FP32">
					<dim>768</dim>
					<dim>1</dim>
				</port>
			</output>
		</layer>
		<layer id="146" name="__module.encoder.layer.0.attention.attn.v/aten::linear/MatMul/fq_weights_1" type="Multiply" version="opset1">
			<data auto_broadcast="numpy" />
			<input>
				<port id="0" precision="FP32">
					<dim>768</dim>
					<dim>768</dim>
				</port>
				<port id="1" precision="FP32">
					<dim>768</dim>
					<dim>1</dim>
				</port>
			</input>
			<output>
				<port id="2" precision="FP32">
					<dim>768</dim>
					<dim>768</dim>
				</port>
			</output>
		</layer>
		<layer id="147" name="__module.encoder.layer.0.attention.attn.v/aten::linear/MatMul" type="MatMul" version="opset1">
			<data transpose_a="false" transpose_b="true" />
			<input>
				<port id="0" precision="FP32">
					<dim>-1</dim>
					<dim>-1</dim>
					<dim>768</dim>
				</port>
				<port id="1" precision="FP32">
					<dim>768</dim>
					<dim>768</dim>
				</port>
			</input>
			<output>
				<port id="2" precision="FP32">
					<dim>-1</dim>
					<dim>-1</dim>
					<dim>768</dim>
				</port>
			</output>
		</layer>
		<layer id="148" name="Constant_530446" type="Const" version="opset1">
			<data element_type="f32" shape="1, 1, 768" offset="25758408" size="3072" />
			<output>
				<port id="0" precision="FP32">
					<dim>1</dim>
					<dim>1</dim>
					<dim>768</dim>
				</port>
			</output>
		</layer>
		<layer id="149" name="__module.encoder.layer.0.attention.attn.v/aten::linear/Add" type="Add" version="opset1">
			<data auto_broadcast="numpy" />
			<input>
				<port id="0" precision="FP32">
					<dim>-1</dim>
					<dim>-1</dim>
					<dim>768</dim>
				</port>
				<port id="1" precision="FP32">
					<dim>1</dim>
					<dim>1</dim>
					<dim>768</dim>
				</port>
			</input>
			<output>
				<port id="2" precision="FP32" names="170,x.11">
					<dim>-1</dim>
					<dim>-1</dim>
					<dim>768</dim>
				</port>
			</output>
		</layer>
		<layer id="150" name="__module.encoder.layer.0.attention.attn/prim::ListConstruct/Concat_2" type="Const" version="opset1">
			<data element_type="i64" shape="4" offset="24568868" size="32" />
			<output>
				<port id="0" precision="I64">
					<dim>4</dim>
				</port>
			</output>
		</layer>
		<layer id="151" name="__module.encoder.layer.0.attention.attn/aten::view/Reshape_2" type="Reshape" version="opset1">
			<data special_zero="true" />
			<input>
				<port id="0" precision="FP32">
					<dim>-1</dim>
					<dim>-1</dim>
					<dim>768</dim>
				</port>
				<port id="1" precision="I64">
					<dim>4</dim>
				</port>
			</input>
			<output>
				<port id="2" precision="FP32" names="186,x.13">
					<dim>-1</dim>
					<dim>-1</dim>
					<dim>12</dim>
					<dim>64</dim>
				</port>
			</output>
		</layer>
		<layer id="152" name="Constant_521682" type="Const" version="opset1">
			<data element_type="i64" shape="4" offset="24568900" size="32" />
			<output>
				<port id="0" precision="I64" names="187">
					<dim>4</dim>
				</port>
			</output>
		</layer>
		<layer id="153" name="__module.encoder.layer.0.attention.attn/aten::permute/Transpose_2" type="Transpose" version="opset1">
			<input>
				<port id="0" precision="FP32">
					<dim>-1</dim>
					<dim>-1</dim>
					<dim>12</dim>
					<dim>64</dim>
				</port>
				<port id="1" precision="I64">
					<dim>4</dim>
				</port>
			</input>
			<output>
				<port id="2" precision="FP32" names="188">
					<dim>-1</dim>
					<dim>12</dim>
					<dim>-1</dim>
					<dim>64</dim>
				</port>
			</output>
		</layer>
		<layer id="154" name="__module.encoder.layer.0.attention.attn/aten::matmul/MatMul_1" type="MatMul" version="opset1">
			<data transpose_a="false" transpose_b="false" />
			<input>
				<port id="0" precision="FP32">
					<dim>-1</dim>
					<dim>12</dim>
					<dim>-1</dim>
					<dim>-1</dim>
				</port>
				<port id="1" precision="FP32">
					<dim>-1</dim>
					<dim>12</dim>
					<dim>-1</dim>
					<dim>64</dim>
				</port>
			</input>
			<output>
				<port id="2" precision="FP32" names="196,c.1">
					<dim>-1</dim>
					<dim>12</dim>
					<dim>-1</dim>
					<dim>64</dim>
				</port>
			</output>
		</layer>
		<layer id="155" name="Constant_521766" type="Const" version="opset1">
			<data element_type="i64" shape="4" offset="24568900" size="32" />
			<output>
				<port id="0" precision="I64" names="197">
					<dim>4</dim>
				</port>
			</output>
		</layer>
		<layer id="156" name="__module.encoder.layer.0.attention.attn/aten::permute/Transpose_3" type="Transpose" version="opset1">
			<input>
				<port id="0" precision="FP32">
					<dim>-1</dim>
					<dim>12</dim>
					<dim>-1</dim>
					<dim>64</dim>
				</port>
				<port id="1" precision="I64">
					<dim>4</dim>
				</port>
			</input>
			<output>
				<port id="2" precision="FP32" names="198">
					<dim>-1</dim>
					<dim>-1</dim>
					<dim>12</dim>
					<dim>64</dim>
				</port>
			</output>
		</layer>
		<layer id="157" name="__module.encoder.layer.0.attention.attn/prim::ListConstruct/Concat_3" type="Const" version="opset1">
			<data element_type="i64" shape="3" offset="25761480" size="24" />
			<output>
				<port id="0" precision="I64">
					<dim>3</dim>
				</port>
			</output>
		</layer>
		<layer id="158" name="__module.encoder.layer.0.attention.attn/aten::view/Reshape_3" type="Reshape" version="opset1">
			<data special_zero="true" />
			<input>
				<port id="0" precision="FP32">
					<dim>-1</dim>
					<dim>-1</dim>
					<dim>12</dim>
					<dim>64</dim>
				</port>
				<port id="1" precision="I64">
					<dim>3</dim>
				</port>
			</input>
			<output>
				<port id="2" precision="FP32" names="203">
					<dim>-1</dim>
					<dim>-1</dim>
					<dim>768</dim>
				</port>
			</output>
		</layer>
		<layer id="159" name="__module.encoder.layer.0.attention.attn/aten::view/Reshape_3_0_0/nncf_smooth_quant/scale" type="Const" version="opset1">
			<data element_type="f32" shape="1, 1, 768" offset="25761504" size="3072" />
			<output>
				<port id="0" precision="FP32">
					<dim>1</dim>
					<dim>1</dim>
					<dim>768</dim>
				</port>
			</output>
		</layer>
		<layer id="160" name="__module.encoder.layer.0.attention.attn/aten::view/Reshape_3_0_0/nncf_smooth_quant" type="Multiply" version="opset1">
			<data auto_broadcast="numpy" />
			<input>
				<port id="0" precision="FP32">
					<dim>-1</dim>
					<dim>-1</dim>
					<dim>768</dim>
				</port>
				<port id="1" precision="FP32">
					<dim>1</dim>
					<dim>1</dim>
					<dim>768</dim>
				</port>
			</input>
			<output>
				<port id="2" precision="FP32">
					<dim>-1</dim>
					<dim>-1</dim>
					<dim>768</dim>
				</port>
			</output>
		</layer>
		<layer id="161" name="__module.encoder.layer.0.attention.attn/aten::view/Reshape_3_0_0/nncf_smooth_quant/fq_output_0/input_low" type="Const" version="opset1">
			<data element_type="f32" shape="" offset="25764576" size="4" />
			<output>
				<port id="0" precision="FP32" />
			</output>
		</layer>
		<layer id="162" name="__module.encoder.layer.0.attention.attn/aten::view/Reshape_3_0_0/nncf_smooth_quant/fq_output_0/input_high" type="Const" version="opset1">
			<data element_type="f32" shape="" offset="25764580" size="4" />
			<output>
				<port id="0" precision="FP32" />
			</output>
		</layer>
		<layer id="163" name="__module.encoder.layer.0.attention.attn/aten::view/Reshape_3_0_0/nncf_smooth_quant/fq_output_0/output_low" type="Const" version="opset1">
			<data element_type="f32" shape="" offset="25764576" size="4" />
			<output>
				<port id="0" precision="FP32" />
			</output>
		</layer>
		<layer id="164" name="__module.encoder.layer.0.attention.attn/aten::view/Reshape_3_0_0/nncf_smooth_quant/fq_output_0/output_high" type="Const" version="opset1">
			<data element_type="f32" shape="" offset="25764580" size="4" />
			<output>
				<port id="0" precision="FP32" />
			</output>
		</layer>
		<layer id="165" name="__module.encoder.layer.0.attention.attn/aten::view/Reshape_3_0_0/nncf_smooth_quant/fq_output_0" type="FakeQuantize" version="opset1">
			<data levels="256" auto_broadcast="numpy" />
			<input>
				<port id="0" precision="FP32">
					<dim>-1</dim>
					<dim>-1</dim>
					<dim>768</dim>
				</port>
				<port id="1" precision="FP32" />
				<port id="2" precision="FP32" />
				<port id="3" precision="FP32" />
				<port id="4" precision="FP32" />
			</input>
			<output>
				<port id="5" precision="FP32">
					<dim>-1</dim>
					<dim>-1</dim>
					<dim>768</dim>
				</port>
			</output>
		</layer>
		<layer id="166" name="Constant_4001770" type="Const" version="opset1">
			<data element_type="i8" shape="768, 768" offset="25764584" size="589824" />
			<output>
				<port id="0" precision="I8">
					<dim>768</dim>
					<dim>768</dim>
				</port>
			</output>
		</layer>
		<layer id="167" name="Convert_4001771" type="Convert" version="opset1">
			<data destination_type="f32" />
			<input>
				<port id="0" precision="I8">
					<dim>768</dim>
					<dim>768</dim>
				</port>
			</input>
			<output>
				<port id="1" precision="FP32">
					<dim>768</dim>
					<dim>768</dim>
				</port>
			</output>
		</layer>
		<layer id="168" name="Constant_4001772" type="Const" version="opset1">
			<data element_type="f32" shape="768, 1" offset="26354408" size="3072" />
			<output>
				<port id="0" precision="FP32">
					<dim>768</dim>
					<dim>1</dim>
				</port>
			</output>
		</layer>
		<layer id="169" name="__module.encoder.layer.0.attention.attn.o/aten::linear/MatMul/fq_weights_1" type="Multiply" version="opset1">
			<data auto_broadcast="numpy" />
			<input>
				<port id="0" precision="FP32">
					<dim>768</dim>
					<dim>768</dim>
				</port>
				<port id="1" precision="FP32">
					<dim>768</dim>
					<dim>1</dim>
				</port>
			</input>
			<output>
				<port id="2" precision="FP32">
					<dim>768</dim>
					<dim>768</dim>
				</port>
			</output>
		</layer>
		<layer id="170" name="__module.encoder.layer.0.attention.attn.o/aten::linear/MatMul" type="MatMul" version="opset1">
			<data transpose_a="false" transpose_b="true" />
			<input>
				<port id="0" precision="FP32">
					<dim>-1</dim>
					<dim>-1</dim>
					<dim>768</dim>
				</port>
				<port id="1" precision="FP32">
					<dim>768</dim>
					<dim>768</dim>
				</port>
			</input>
			<output>
				<port id="2" precision="FP32">
					<dim>-1</dim>
					<dim>-1</dim>
					<dim>768</dim>
				</port>
			</output>
		</layer>
		<layer id="171" name="Constant_530447" type="Const" version="opset1">
			<data element_type="f32" shape="1, 1, 768" offset="26357480" size="3072" />
			<output>
				<port id="0" precision="FP32">
					<dim>1</dim>
					<dim>1</dim>
					<dim>768</dim>
				</port>
			</output>
		</layer>
		<layer id="172" name="__module.encoder.layer.0.attention.attn.o/aten::linear/Add" type="Add" version="opset1">
			<data auto_broadcast="numpy" />
			<input>
				<port id="0" precision="FP32">
					<dim>-1</dim>
					<dim>-1</dim>
					<dim>768</dim>
				</port>
				<port id="1" precision="FP32">
					<dim>1</dim>
					<dim>1</dim>
					<dim>768</dim>
				</port>
			</input>
			<output>
				<port id="2" precision="FP32" names="206,input.7">
					<dim>-1</dim>
					<dim>-1</dim>
					<dim>768</dim>
				</port>
			</output>
		</layer>
		<layer id="173" name="__module.encoder.layer.0.attention/aten::add/Add" type="Add" version="opset1">
			<data auto_broadcast="numpy" />
			<input>
				<port id="0" precision="FP32">
					<dim>-1</dim>
					<dim>-1</dim>
					<dim>768</dim>
				</port>
				<port id="1" precision="FP32">
					<dim>-1</dim>
					<dim>-1</dim>
					<dim>768</dim>
				</port>
			</input>
			<output>
				<port id="2" precision="FP32" names="208">
					<dim>-1</dim>
					<dim>-1</dim>
					<dim>768</dim>
				</port>
			</output>
		</layer>
		<layer id="174" name="__module.encoder.layer.0.attention.LayerNorm/aten::layer_norm/Multiply" type="Const" version="opset1">
			<data element_type="i32" shape="1" offset="23963664" size="4" />
			<output>
				<port id="0" precision="I32">
					<dim>1</dim>
				</port>
			</output>
		</layer>
		<layer id="175" name="__module.encoder.layer.0.attention.LayerNorm/aten::layer_norm/MVN" type="MVN" version="opset6">
			<data eps="9.9999997473787516e-06" normalize_variance="true" eps_mode="INSIDE_SQRT" />
			<input>
				<port id="0" precision="FP32">
					<dim>-1</dim>
					<dim>-1</dim>
					<dim>768</dim>
				</port>
				<port id="1" precision="I32">
					<dim>1</dim>
				</port>
			</input>
			<output>
				<port id="2" precision="FP32">
					<dim>-1</dim>
					<dim>-1</dim>
					<dim>768</dim>
				</port>
			</output>
		</layer>
		<layer id="176" name="Constant_530448" type="Const" version="opset1">
			<data element_type="f32" shape="1, 1, 768" offset="26360552" size="3072" />
			<output>
				<port id="0" precision="FP32">
					<dim>1</dim>
					<dim>1</dim>
					<dim>768</dim>
				</port>
			</output>
		</layer>
		<layer id="177" name="__module.encoder.layer.0.attention.LayerNorm/aten::layer_norm/Multiply_1" type="Multiply" version="opset1">
			<data auto_broadcast="numpy" />
			<input>
				<port id="0" precision="FP32">
					<dim>-1</dim>
					<dim>-1</dim>
					<dim>768</dim>
				</port>
				<port id="1" precision="FP32">
					<dim>1</dim>
					<dim>1</dim>
					<dim>768</dim>
				</port>
			</input>
			<output>
				<port id="2" precision="FP32">
					<dim>-1</dim>
					<dim>-1</dim>
					<dim>768</dim>
				</port>
			</output>
		</layer>
		<layer id="178" name="Constant_530449" type="Const" version="opset1">
			<data element_type="f32" shape="1, 1, 768" offset="26363624" size="3072" />
			<output>
				<port id="0" precision="FP32">
					<dim>1</dim>
					<dim>1</dim>
					<dim>768</dim>
				</port>
			</output>
		</layer>
		<layer id="179" name="__module.encoder.layer.0.attention.LayerNorm/aten::layer_norm/Add" type="Add" version="opset1">
			<data auto_broadcast="numpy" />
			<input>
				<port id="0" precision="FP32">
					<dim>-1</dim>
					<dim>-1</dim>
					<dim>768</dim>
				</port>
				<port id="1" precision="FP32">
					<dim>1</dim>
					<dim>1</dim>
					<dim>768</dim>
				</port>
			</input>
			<output>
				<port id="2" precision="FP32" names="212,input_tensor.1">
					<dim>-1</dim>
					<dim>-1</dim>
					<dim>768</dim>
				</port>
			</output>
		</layer>
		<layer id="180" name="__module.encoder.layer.0.attention.LayerNorm/aten::layer_norm/Add_0_0/nncf_smooth_quant/scale" type="Const" version="opset1">
			<data element_type="f32" shape="1, 1, 768" offset="26366696" size="3072" />
			<output>
				<port id="0" precision="FP32">
					<dim>1</dim>
					<dim>1</dim>
					<dim>768</dim>
				</port>
			</output>
		</layer>
		<layer id="181" name="__module.encoder.layer.0.attention.LayerNorm/aten::layer_norm/Add_0_0/nncf_smooth_quant" type="Multiply" version="opset1">
			<data auto_broadcast="numpy" />
			<input>
				<port id="0" precision="FP32">
					<dim>-1</dim>
					<dim>-1</dim>
					<dim>768</dim>
				</port>
				<port id="1" precision="FP32">
					<dim>1</dim>
					<dim>1</dim>
					<dim>768</dim>
				</port>
			</input>
			<output>
				<port id="2" precision="FP32">
					<dim>-1</dim>
					<dim>-1</dim>
					<dim>768</dim>
				</port>
			</output>
		</layer>
		<layer id="182" name="__module.encoder.layer.0.attention.LayerNorm/aten::layer_norm/Add_0_0/nncf_smooth_quant/fq_output_0/input_low" type="Const" version="opset1">
			<data element_type="f32" shape="" offset="26369768" size="4" />
			<output>
				<port id="0" precision="FP32" />
			</output>
		</layer>
		<layer id="183" name="__module.encoder.layer.0.attention.LayerNorm/aten::layer_norm/Add_0_0/nncf_smooth_quant/fq_output_0/input_high" type="Const" version="opset1">
			<data element_type="f32" shape="" offset="26369772" size="4" />
			<output>
				<port id="0" precision="FP32" />
			</output>
		</layer>
		<layer id="184" name="__module.encoder.layer.0.attention.LayerNorm/aten::layer_norm/Add_0_0/nncf_smooth_quant/fq_output_0/output_low" type="Const" version="opset1">
			<data element_type="f32" shape="" offset="26369768" size="4" />
			<output>
				<port id="0" precision="FP32" />
			</output>
		</layer>
		<layer id="185" name="__module.encoder.layer.0.attention.LayerNorm/aten::layer_norm/Add_0_0/nncf_smooth_quant/fq_output_0/output_high" type="Const" version="opset1">
			<data element_type="f32" shape="" offset="26369772" size="4" />
			<output>
				<port id="0" precision="FP32" />
			</output>
		</layer>
		<layer id="186" name="__module.encoder.layer.0.attention.LayerNorm/aten::layer_norm/Add_0_0/nncf_smooth_quant/fq_output_0" type="FakeQuantize" version="opset1">
			<data levels="256" auto_broadcast="numpy" />
			<input>
				<port id="0" precision="FP32">
					<dim>-1</dim>
					<dim>-1</dim>
					<dim>768</dim>
				</port>
				<port id="1" precision="FP32" />
				<port id="2" precision="FP32" />
				<port id="3" precision="FP32" />
				<port id="4" precision="FP32" />
			</input>
			<output>
				<port id="5" precision="FP32">
					<dim>-1</dim>
					<dim>-1</dim>
					<dim>768</dim>
				</port>
			</output>
		</layer>
		<layer id="187" name="Constant_4001774" type="Const" version="opset1">
			<data element_type="i8" shape="3072, 768" offset="26369776" size="2359296" />
			<output>
				<port id="0" precision="I8">
					<dim>3072</dim>
					<dim>768</dim>
				</port>
			</output>
		</layer>
		<layer id="188" name="Convert_4001775" type="Convert" version="opset1">
			<data destination_type="f32" />
			<input>
				<port id="0" precision="I8">
					<dim>3072</dim>
					<dim>768</dim>
				</port>
			</input>
			<output>
				<port id="1" precision="FP32">
					<dim>3072</dim>
					<dim>768</dim>
				</port>
			</output>
		</layer>
		<layer id="189" name="Constant_4001776" type="Const" version="opset1">
			<data element_type="f32" shape="3072, 1" offset="28729072" size="12288" />
			<output>
				<port id="0" precision="FP32">
					<dim>3072</dim>
					<dim>1</dim>
				</port>
			</output>
		</layer>
		<layer id="190" name="__module.encoder.layer.0.intermediate.dense/aten::linear/MatMul/fq_weights_1" type="Multiply" version="opset1">
			<data auto_broadcast="numpy" />
			<input>
				<port id="0" precision="FP32">
					<dim>3072</dim>
					<dim>768</dim>
				</port>
				<port id="1" precision="FP32">
					<dim>3072</dim>
					<dim>1</dim>
				</port>
			</input>
			<output>
				<port id="2" precision="FP32">
					<dim>3072</dim>
					<dim>768</dim>
				</port>
			</output>
		</layer>
		<layer id="191" name="__module.encoder.layer.0.intermediate.dense/aten::linear/MatMul" type="MatMul" version="opset1">
			<data transpose_a="false" transpose_b="true" />
			<input>
				<port id="0" precision="FP32">
					<dim>-1</dim>
					<dim>-1</dim>
					<dim>768</dim>
				</port>
				<port id="1" precision="FP32">
					<dim>3072</dim>
					<dim>768</dim>
				</port>
			</input>
			<output>
				<port id="2" precision="FP32">
					<dim>-1</dim>
					<dim>-1</dim>
					<dim>3072</dim>
				</port>
			</output>
		</layer>
		<layer id="192" name="Constant_530450" type="Const" version="opset1">
			<data element_type="f32" shape="1, 1, 3072" offset="28741360" size="12288" />
			<output>
				<port id="0" precision="FP32">
					<dim>1</dim>
					<dim>1</dim>
					<dim>3072</dim>
				</port>
			</output>
		</layer>
		<layer id="193" name="__module.encoder.layer.0.intermediate.dense/aten::linear/Add" type="Add" version="opset1">
			<data auto_broadcast="numpy" />
			<input>
				<port id="0" precision="FP32">
					<dim>-1</dim>
					<dim>-1</dim>
					<dim>3072</dim>
				</port>
				<port id="1" precision="FP32">
					<dim>1</dim>
					<dim>1</dim>
					<dim>3072</dim>
				</port>
			</input>
			<output>
				<port id="2" precision="FP32" names="216">
					<dim>-1</dim>
					<dim>-1</dim>
					<dim>3072</dim>
				</port>
			</output>
		</layer>
		<layer id="194" name="__module.encoder.layer.0.intermediate.intermediate_act_fn/aten::gelu/Gelu" type="Gelu" version="opset7">
			<data approximation_mode="ERF" />
			<input>
				<port id="0" precision="FP32">
					<dim>-1</dim>
					<dim>-1</dim>
					<dim>3072</dim>
				</port>
			</input>
			<output>
				<port id="1" precision="FP32" names="217">
					<dim>-1</dim>
					<dim>-1</dim>
					<dim>3072</dim>
				</port>
			</output>
		</layer>
		<layer id="195" name="__module.encoder.layer.0.intermediate.intermediate_act_fn/aten::gelu/Gelu_0_0/nncf_smooth_quant/scale" type="Const" version="opset1">
			<data element_type="f32" shape="1, 1, 3072" offset="28753648" size="12288" />
			<output>
				<port id="0" precision="FP32">
					<dim>1</dim>
					<dim>1</dim>
					<dim>3072</dim>
				</port>
			</output>
		</layer>
		<layer id="196" name="__module.encoder.layer.0.intermediate.intermediate_act_fn/aten::gelu/Gelu_0_0/nncf_smooth_quant" type="Multiply" version="opset1">
			<data auto_broadcast="numpy" />
			<input>
				<port id="0" precision="FP32">
					<dim>-1</dim>
					<dim>-1</dim>
					<dim>3072</dim>
				</port>
				<port id="1" precision="FP32">
					<dim>1</dim>
					<dim>1</dim>
					<dim>3072</dim>
				</port>
			</input>
			<output>
				<port id="2" precision="FP32">
					<dim>-1</dim>
					<dim>-1</dim>
					<dim>3072</dim>
				</port>
			</output>
		</layer>
		<layer id="197" name="__module.encoder.layer.0.intermediate.intermediate_act_fn/aten::gelu/Gelu_0_0/nncf_smooth_quant/fq_output_0/input_low" type="Const" version="opset1">
			<data element_type="f32" shape="" offset="28765936" size="4" />
			<output>
				<port id="0" precision="FP32" />
			</output>
		</layer>
		<layer id="198" name="__module.encoder.layer.0.intermediate.intermediate_act_fn/aten::gelu/Gelu_0_0/nncf_smooth_quant/fq_output_0/input_high" type="Const" version="opset1">
			<data element_type="f32" shape="" offset="28765940" size="4" />
			<output>
				<port id="0" precision="FP32" />
			</output>
		</layer>
		<layer id="199" name="__module.encoder.layer.0.intermediate.intermediate_act_fn/aten::gelu/Gelu_0_0/nncf_smooth_quant/fq_output_0/output_low" type="Const" version="opset1">
			<data element_type="f32" shape="" offset="28765936" size="4" />
			<output>
				<port id="0" precision="FP32" />
			</output>
		</layer>
		<layer id="200" name="__module.encoder.layer.0.intermediate.intermediate_act_fn/aten::gelu/Gelu_0_0/nncf_smooth_quant/fq_output_0/output_high" type="Const" version="opset1">
			<data element_type="f32" shape="" offset="28765940" size="4" />
			<output>
				<port id="0" precision="FP32" />
			</output>
		</layer>
		<layer id="201" name="__module.encoder.layer.0.intermediate.intermediate_act_fn/aten::gelu/Gelu_0_0/nncf_smooth_quant/fq_output_0" type="FakeQuantize" version="opset1">
			<data levels="256" auto_broadcast="numpy" />
			<input>
				<port id="0" precision="FP32">
					<dim>-1</dim>
					<dim>-1</dim>
					<dim>3072</dim>
				</port>
				<port id="1" precision="FP32" />
				<port id="2" precision="FP32" />
				<port id="3" precision="FP32" />
				<port id="4" precision="FP32" />
			</input>
			<output>
				<port id="5" precision="FP32">
					<dim>-1</dim>
					<dim>-1</dim>
					<dim>3072</dim>
				</port>
			</output>
		</layer>
		<layer id="202" name="Constant_4001778" type="Const" version="opset1">
			<data element_type="i8" shape="768, 3072" offset="28765944" size="2359296" />
			<output>
				<port id="0" precision="I8">
					<dim>768</dim>
					<dim>3072</dim>
				</port>
			</output>
		</layer>
		<layer id="203" name="Convert_4001779" type="Convert" version="opset1">
			<data destination_type="f32" />
			<input>
				<port id="0" precision="I8">
					<dim>768</dim>
					<dim>3072</dim>
				</port>
			</input>
			<output>
				<port id="1" precision="FP32">
					<dim>768</dim>
					<dim>3072</dim>
				</port>
			</output>
		</layer>
		<layer id="204" name="Constant_4001780" type="Const" version="opset1">
			<data element_type="f32" shape="768, 1" offset="31125240" size="3072" />
			<output>
				<port id="0" precision="FP32">
					<dim>768</dim>
					<dim>1</dim>
				</port>
			</output>
		</layer>
		<layer id="205" name="__module.encoder.layer.0.output.dense/aten::linear/MatMul/fq_weights_1" type="Multiply" version="opset1">
			<data auto_broadcast="numpy" />
			<input>
				<port id="0" precision="FP32">
					<dim>768</dim>
					<dim>3072</dim>
				</port>
				<port id="1" precision="FP32">
					<dim>768</dim>
					<dim>1</dim>
				</port>
			</input>
			<output>
				<port id="2" precision="FP32">
					<dim>768</dim>
					<dim>3072</dim>
				</port>
			</output>
		</layer>
		<layer id="206" name="__module.encoder.layer.0.output.dense/aten::linear/MatMul" type="MatMul" version="opset1">
			<data transpose_a="false" transpose_b="true" />
			<input>
				<port id="0" precision="FP32">
					<dim>-1</dim>
					<dim>-1</dim>
					<dim>3072</dim>
				</port>
				<port id="1" precision="FP32">
					<dim>768</dim>
					<dim>3072</dim>
				</port>
			</input>
			<output>
				<port id="2" precision="FP32">
					<dim>-1</dim>
					<dim>-1</dim>
					<dim>768</dim>
				</port>
			</output>
		</layer>
		<layer id="207" name="Constant_530451" type="Const" version="opset1">
			<data element_type="f32" shape="1, 1, 768" offset="31128312" size="3072" />
			<output>
				<port id="0" precision="FP32">
					<dim>1</dim>
					<dim>1</dim>
					<dim>768</dim>
				</port>
			</output>
		</layer>
		<layer id="208" name="__module.encoder.layer.0.output.dense/aten::linear/Add" type="Add" version="opset1">
			<data auto_broadcast="numpy" />
			<input>
				<port id="0" precision="FP32">
					<dim>-1</dim>
					<dim>-1</dim>
					<dim>768</dim>
				</port>
				<port id="1" precision="FP32">
					<dim>1</dim>
					<dim>1</dim>
					<dim>768</dim>
				</port>
			</input>
			<output>
				<port id="2" precision="FP32" names="222,input.9">
					<dim>-1</dim>
					<dim>-1</dim>
					<dim>768</dim>
				</port>
			</output>
		</layer>
		<layer id="209" name="__module.encoder.layer.0.output/aten::add/Add" type="Add" version="opset1">
			<data auto_broadcast="numpy" />
			<input>
				<port id="0" precision="FP32">
					<dim>-1</dim>
					<dim>-1</dim>
					<dim>768</dim>
				</port>
				<port id="1" precision="FP32">
					<dim>-1</dim>
					<dim>-1</dim>
					<dim>768</dim>
				</port>
			</input>
			<output>
				<port id="2" precision="FP32" names="224">
					<dim>-1</dim>
					<dim>-1</dim>
					<dim>768</dim>
				</port>
			</output>
		</layer>
		<layer id="210" name="__module.encoder.layer.0.output.LayerNorm/aten::layer_norm/Multiply" type="Const" version="opset1">
			<data element_type="i32" shape="1" offset="23963664" size="4" />
			<output>
				<port id="0" precision="I32">
					<dim>1</dim>
				</port>
			</output>
		</layer>
		<layer id="211" name="__module.encoder.layer.0.output.LayerNorm/aten::layer_norm/MVN" type="MVN" version="opset6">
			<data eps="9.9999997473787516e-06" normalize_variance="true" eps_mode="INSIDE_SQRT" />
			<input>
				<port id="0" precision="FP32">
					<dim>-1</dim>
					<dim>-1</dim>
					<dim>768</dim>
				</port>
				<port id="1" precision="I32">
					<dim>1</dim>
				</port>
			</input>
			<output>
				<port id="2" precision="FP32">
					<dim>-1</dim>
					<dim>-1</dim>
					<dim>768</dim>
				</port>
			</output>
		</layer>
		<layer id="212" name="Constant_530452" type="Const" version="opset1">
			<data element_type="f32" shape="1, 1, 768" offset="31131384" size="3072" />
			<output>
				<port id="0" precision="FP32">
					<dim>1</dim>
					<dim>1</dim>
					<dim>768</dim>
				</port>
			</output>
		</layer>
		<layer id="213" name="__module.encoder.layer.0.output.LayerNorm/aten::layer_norm/Multiply_1" type="Multiply" version="opset1">
			<data auto_broadcast="numpy" />
			<input>
				<port id="0" precision="FP32">
					<dim>-1</dim>
					<dim>-1</dim>
					<dim>768</dim>
				</port>
				<port id="1" precision="FP32">
					<dim>1</dim>
					<dim>1</dim>
					<dim>768</dim>
				</port>
			</input>
			<output>
				<port id="2" precision="FP32">
					<dim>-1</dim>
					<dim>-1</dim>
					<dim>768</dim>
				</port>
			</output>
		</layer>
		<layer id="214" name="Constant_530453" type="Const" version="opset1">
			<data element_type="f32" shape="1, 1, 768" offset="31134456" size="3072" />
			<output>
				<port id="0" precision="FP32">
					<dim>1</dim>
					<dim>1</dim>
					<dim>768</dim>
				</port>
			</output>
		</layer>
		<layer id="215" name="__module.encoder.layer.0.output.LayerNorm/aten::layer_norm/Add" type="Add" version="opset1">
			<data auto_broadcast="numpy" />
			<input>
				<port id="0" precision="FP32">
					<dim>-1</dim>
					<dim>-1</dim>
					<dim>768</dim>
				</port>
				<port id="1" precision="FP32">
					<dim>1</dim>
					<dim>1</dim>
					<dim>768</dim>
				</port>
			</input>
			<output>
				<port id="2" precision="FP32" names="228,hidden_states.3">
					<dim>-1</dim>
					<dim>-1</dim>
					<dim>768</dim>
				</port>
			</output>
		</layer>
		<layer id="216" name="__module.encoder.layer.0.output.LayerNorm/aten::layer_norm/Add_0_0/nncf_smooth_quant/scale" type="Const" version="opset1">
			<data element_type="f32" shape="1, 1, 768" offset="31137528" size="3072" />
			<output>
				<port id="0" precision="FP32">
					<dim>1</dim>
					<dim>1</dim>
					<dim>768</dim>
				</port>
			</output>
		</layer>
		<layer id="217" name="__module.encoder.layer.0.output.LayerNorm/aten::layer_norm/Add_0_0/nncf_smooth_quant" type="Multiply" version="opset1">
			<data auto_broadcast="numpy" />
			<input>
				<port id="0" precision="FP32">
					<dim>-1</dim>
					<dim>-1</dim>
					<dim>768</dim>
				</port>
				<port id="1" precision="FP32">
					<dim>1</dim>
					<dim>1</dim>
					<dim>768</dim>
				</port>
			</input>
			<output>
				<port id="2" precision="FP32">
					<dim>-1</dim>
					<dim>-1</dim>
					<dim>768</dim>
				</port>
			</output>
		</layer>
		<layer id="218" name="__module.encoder.layer.0.output.LayerNorm/aten::layer_norm/Add_0_0/nncf_smooth_quant/fq_output_0/input_low" type="Const" version="opset1">
			<data element_type="f32" shape="" offset="31140600" size="4" />
			<output>
				<port id="0" precision="FP32" />
			</output>
		</layer>
		<layer id="219" name="__module.encoder.layer.0.output.LayerNorm/aten::layer_norm/Add_0_0/nncf_smooth_quant/fq_output_0/input_high" type="Const" version="opset1">
			<data element_type="f32" shape="" offset="31140604" size="4" />
			<output>
				<port id="0" precision="FP32" />
			</output>
		</layer>
		<layer id="220" name="__module.encoder.layer.0.output.LayerNorm/aten::layer_norm/Add_0_0/nncf_smooth_quant/fq_output_0/output_low" type="Const" version="opset1">
			<data element_type="f32" shape="" offset="31140600" size="4" />
			<output>
				<port id="0" precision="FP32" />
			</output>
		</layer>
		<layer id="221" name="__module.encoder.layer.0.output.LayerNorm/aten::layer_norm/Add_0_0/nncf_smooth_quant/fq_output_0/output_high" type="Const" version="opset1">
			<data element_type="f32" shape="" offset="31140604" size="4" />
			<output>
				<port id="0" precision="FP32" />
			</output>
		</layer>
		<layer id="222" name="__module.encoder.layer.0.output.LayerNorm/aten::layer_norm/Add_0_0/nncf_smooth_quant/fq_output_0" type="FakeQuantize" version="opset1">
			<data levels="256" auto_broadcast="numpy" />
			<input>
				<port id="0" precision="FP32">
					<dim>-1</dim>
					<dim>-1</dim>
					<dim>768</dim>
				</port>
				<port id="1" precision="FP32" />
				<port id="2" precision="FP32" />
				<port id="3" precision="FP32" />
				<port id="4" precision="FP32" />
			</input>
			<output>
				<port id="5" precision="FP32">
					<dim>-1</dim>
					<dim>-1</dim>
					<dim>768</dim>
				</port>
			</output>
		</layer>
		<layer id="223" name="Constant_4001782" type="Const" version="opset1">
			<data element_type="i8" shape="768, 768" offset="31140608" size="589824" />
			<output>
				<port id="0" precision="I8">
					<dim>768</dim>
					<dim>768</dim>
				</port>
			</output>
		</layer>
		<layer id="224" name="Convert_4001783" type="Convert" version="opset1">
			<data destination_type="f32" />
			<input>
				<port id="0" precision="I8">
					<dim>768</dim>
					<dim>768</dim>
				</port>
			</input>
			<output>
				<port id="1" precision="FP32">
					<dim>768</dim>
					<dim>768</dim>
				</port>
			</output>
		</layer>
		<layer id="225" name="Constant_4001784" type="Const" version="opset1">
			<data element_type="f32" shape="768, 1" offset="31730432" size="3072" />
			<output>
				<port id="0" precision="FP32">
					<dim>768</dim>
					<dim>1</dim>
				</port>
			</output>
		</layer>
		<layer id="226" name="__module.encoder.layer.1.attention.attn.q/aten::linear/MatMul/fq_weights_1" type="Multiply" version="opset1">
			<data auto_broadcast="numpy" />
			<input>
				<port id="0" precision="FP32">
					<dim>768</dim>
					<dim>768</dim>
				</port>
				<port id="1" precision="FP32">
					<dim>768</dim>
					<dim>1</dim>
				</port>
			</input>
			<output>
				<port id="2" precision="FP32">
					<dim>768</dim>
					<dim>768</dim>
				</port>
			</output>
		</layer>
		<layer id="227" name="__module.encoder.layer.1.attention.attn.q/aten::linear/MatMul" type="MatMul" version="opset1">
			<data transpose_a="false" transpose_b="true" />
			<input>
				<port id="0" precision="FP32">
					<dim>-1</dim>
					<dim>-1</dim>
					<dim>768</dim>
				</port>
				<port id="1" precision="FP32">
					<dim>768</dim>
					<dim>768</dim>
				</port>
			</input>
			<output>
				<port id="2" precision="FP32">
					<dim>-1</dim>
					<dim>-1</dim>
					<dim>768</dim>
				</port>
			</output>
		</layer>
		<layer id="228" name="Constant_530454" type="Const" version="opset1">
			<data element_type="f32" shape="1, 1, 768" offset="31733504" size="3072" />
			<output>
				<port id="0" precision="FP32">
					<dim>1</dim>
					<dim>1</dim>
					<dim>768</dim>
				</port>
			</output>
		</layer>
		<layer id="229" name="__module.encoder.layer.1.attention.attn.q/aten::linear/Add" type="Add" version="opset1">
			<data auto_broadcast="numpy" />
			<input>
				<port id="0" precision="FP32">
					<dim>-1</dim>
					<dim>-1</dim>
					<dim>768</dim>
				</port>
				<port id="1" precision="FP32">
					<dim>1</dim>
					<dim>1</dim>
					<dim>768</dim>
				</port>
			</input>
			<output>
				<port id="2" precision="FP32" names="240,x.15">
					<dim>-1</dim>
					<dim>-1</dim>
					<dim>768</dim>
				</port>
			</output>
		</layer>
		<layer id="230" name="__module.encoder.layer.1.attention.attn.q/aten::linear/Add/fq_output_0/input_low" type="Const" version="opset1">
			<data element_type="f32" shape="" offset="31736576" size="4" />
			<output>
				<port id="0" precision="FP32" />
			</output>
		</layer>
		<layer id="231" name="__module.encoder.layer.1.attention.attn.q/aten::linear/Add/fq_output_0/input_high" type="Const" version="opset1">
			<data element_type="f32" shape="" offset="31736580" size="4" />
			<output>
				<port id="0" precision="FP32" />
			</output>
		</layer>
		<layer id="232" name="__module.encoder.layer.1.attention.attn.q/aten::linear/Add/fq_output_0/output_low" type="Const" version="opset1">
			<data element_type="f32" shape="" offset="31736576" size="4" />
			<output>
				<port id="0" precision="FP32" />
			</output>
		</layer>
		<layer id="233" name="__module.encoder.layer.1.attention.attn.q/aten::linear/Add/fq_output_0/output_high" type="Const" version="opset1">
			<data element_type="f32" shape="" offset="31736580" size="4" />
			<output>
				<port id="0" precision="FP32" />
			</output>
		</layer>
		<layer id="234" name="__module.encoder.layer.1.attention.attn.q/aten::linear/Add/fq_output_0" type="FakeQuantize" version="opset1">
			<data levels="256" auto_broadcast="numpy" />
			<input>
				<port id="0" precision="FP32">
					<dim>-1</dim>
					<dim>-1</dim>
					<dim>768</dim>
				</port>
				<port id="1" precision="FP32" />
				<port id="2" precision="FP32" />
				<port id="3" precision="FP32" />
				<port id="4" precision="FP32" />
			</input>
			<output>
				<port id="5" precision="FP32">
					<dim>-1</dim>
					<dim>-1</dim>
					<dim>768</dim>
				</port>
			</output>
		</layer>
		<layer id="235" name="__module.encoder.layer.1.attention.attn/prim::ListConstruct/Concat" type="Const" version="opset1">
			<data element_type="i64" shape="4" offset="24568868" size="32" />
			<output>
				<port id="0" precision="I64">
					<dim>4</dim>
				</port>
			</output>
		</layer>
		<layer id="236" name="__module.encoder.layer.1.attention.attn/aten::view/Reshape" type="Reshape" version="opset1">
			<data special_zero="true" />
			<input>
				<port id="0" precision="FP32">
					<dim>-1</dim>
					<dim>-1</dim>
					<dim>768</dim>
				</port>
				<port id="1" precision="I64">
					<dim>4</dim>
				</port>
			</input>
			<output>
				<port id="2" precision="FP32" names="250,x.17">
					<dim>-1</dim>
					<dim>-1</dim>
					<dim>12</dim>
					<dim>64</dim>
				</port>
			</output>
		</layer>
		<layer id="237" name="Constant_521895" type="Const" version="opset1">
			<data element_type="i64" shape="4" offset="24568900" size="32" />
			<output>
				<port id="0" precision="I64" names="251">
					<dim>4</dim>
				</port>
			</output>
		</layer>
		<layer id="238" name="__module.encoder.layer.1.attention.attn/aten::permute/Transpose" type="Transpose" version="opset1">
			<input>
				<port id="0" precision="FP32">
					<dim>-1</dim>
					<dim>-1</dim>
					<dim>12</dim>
					<dim>64</dim>
				</port>
				<port id="1" precision="I64">
					<dim>4</dim>
				</port>
			</input>
			<output>
				<port id="2" precision="FP32" names="252">
					<dim>-1</dim>
					<dim>12</dim>
					<dim>-1</dim>
					<dim>64</dim>
				</port>
			</output>
		</layer>
		<layer id="239" name="Constant_4001786" type="Const" version="opset1">
			<data element_type="i8" shape="768, 768" offset="31736584" size="589824" />
			<output>
				<port id="0" precision="I8">
					<dim>768</dim>
					<dim>768</dim>
				</port>
			</output>
		</layer>
		<layer id="240" name="Convert_4001787" type="Convert" version="opset1">
			<data destination_type="f32" />
			<input>
				<port id="0" precision="I8">
					<dim>768</dim>
					<dim>768</dim>
				</port>
			</input>
			<output>
				<port id="1" precision="FP32">
					<dim>768</dim>
					<dim>768</dim>
				</port>
			</output>
		</layer>
		<layer id="241" name="Constant_4001788" type="Const" version="opset1">
			<data element_type="f32" shape="768, 1" offset="32326408" size="3072" />
			<output>
				<port id="0" precision="FP32">
					<dim>768</dim>
					<dim>1</dim>
				</port>
			</output>
		</layer>
		<layer id="242" name="__module.encoder.layer.1.attention.attn.k/aten::linear/MatMul/fq_weights_1" type="Multiply" version="opset1">
			<data auto_broadcast="numpy" />
			<input>
				<port id="0" precision="FP32">
					<dim>768</dim>
					<dim>768</dim>
				</port>
				<port id="1" precision="FP32">
					<dim>768</dim>
					<dim>1</dim>
				</port>
			</input>
			<output>
				<port id="2" precision="FP32">
					<dim>768</dim>
					<dim>768</dim>
				</port>
			</output>
		</layer>
		<layer id="243" name="__module.encoder.layer.1.attention.attn.k/aten::linear/MatMul" type="MatMul" version="opset1">
			<data transpose_a="false" transpose_b="true" />
			<input>
				<port id="0" precision="FP32">
					<dim>-1</dim>
					<dim>-1</dim>
					<dim>768</dim>
				</port>
				<port id="1" precision="FP32">
					<dim>768</dim>
					<dim>768</dim>
				</port>
			</input>
			<output>
				<port id="2" precision="FP32">
					<dim>-1</dim>
					<dim>-1</dim>
					<dim>768</dim>
				</port>
			</output>
		</layer>
		<layer id="244" name="Constant_530455" type="Const" version="opset1">
			<data element_type="f32" shape="1, 1, 768" offset="32329480" size="3072" />
			<output>
				<port id="0" precision="FP32">
					<dim>1</dim>
					<dim>1</dim>
					<dim>768</dim>
				</port>
			</output>
		</layer>
		<layer id="245" name="__module.encoder.layer.1.attention.attn.k/aten::linear/Add" type="Add" version="opset1">
			<data auto_broadcast="numpy" />
			<input>
				<port id="0" precision="FP32">
					<dim>-1</dim>
					<dim>-1</dim>
					<dim>768</dim>
				</port>
				<port id="1" precision="FP32">
					<dim>1</dim>
					<dim>1</dim>
					<dim>768</dim>
				</port>
			</input>
			<output>
				<port id="2" precision="FP32" names="243,x.19">
					<dim>-1</dim>
					<dim>-1</dim>
					<dim>768</dim>
				</port>
			</output>
		</layer>
		<layer id="246" name="__module.encoder.layer.1.attention.attn.k/aten::linear/Add/fq_output_0/input_low" type="Const" version="opset1">
			<data element_type="f32" shape="" offset="32332552" size="4" />
			<output>
				<port id="0" precision="FP32" />
			</output>
		</layer>
		<layer id="247" name="__module.encoder.layer.1.attention.attn.k/aten::linear/Add/fq_output_0/input_high" type="Const" version="opset1">
			<data element_type="f32" shape="" offset="32332556" size="4" />
			<output>
				<port id="0" precision="FP32" />
			</output>
		</layer>
		<layer id="248" name="__module.encoder.layer.1.attention.attn.k/aten::linear/Add/fq_output_0/output_low" type="Const" version="opset1">
			<data element_type="f32" shape="" offset="32332552" size="4" />
			<output>
				<port id="0" precision="FP32" />
			</output>
		</layer>
		<layer id="249" name="__module.encoder.layer.1.attention.attn.k/aten::linear/Add/fq_output_0/output_high" type="Const" version="opset1">
			<data element_type="f32" shape="" offset="32332556" size="4" />
			<output>
				<port id="0" precision="FP32" />
			</output>
		</layer>
		<layer id="250" name="__module.encoder.layer.1.attention.attn.k/aten::linear/Add/fq_output_0" type="FakeQuantize" version="opset1">
			<data levels="256" auto_broadcast="numpy" />
			<input>
				<port id="0" precision="FP32">
					<dim>-1</dim>
					<dim>-1</dim>
					<dim>768</dim>
				</port>
				<port id="1" precision="FP32" />
				<port id="2" precision="FP32" />
				<port id="3" precision="FP32" />
				<port id="4" precision="FP32" />
			</input>
			<output>
				<port id="5" precision="FP32">
					<dim>-1</dim>
					<dim>-1</dim>
					<dim>768</dim>
				</port>
			</output>
		</layer>
		<layer id="251" name="__module.encoder.layer.1.attention.attn/prim::ListConstruct/Concat_1" type="Const" version="opset1">
			<data element_type="i64" shape="4" offset="24568868" size="32" />
			<output>
				<port id="0" precision="I64">
					<dim>4</dim>
				</port>
			</output>
		</layer>
		<layer id="252" name="__module.encoder.layer.1.attention.attn/aten::view/Reshape_1" type="Reshape" version="opset1">
			<data special_zero="true" />
			<input>
				<port id="0" precision="FP32">
					<dim>-1</dim>
					<dim>-1</dim>
					<dim>768</dim>
				</port>
				<port id="1" precision="I64">
					<dim>4</dim>
				</port>
			</input>
			<output>
				<port id="2" precision="FP32" names="256,x.21">
					<dim>-1</dim>
					<dim>-1</dim>
					<dim>12</dim>
					<dim>64</dim>
				</port>
			</output>
		</layer>
		<layer id="253" name="Constant_521912" type="Const" version="opset1">
			<data element_type="i64" shape="4" offset="24568900" size="32" />
			<output>
				<port id="0" precision="I64" names="257">
					<dim>4</dim>
				</port>
			</output>
		</layer>
		<layer id="254" name="__module.encoder.layer.1.attention.attn/aten::permute/Transpose_1" type="Transpose" version="opset1">
			<input>
				<port id="0" precision="FP32">
					<dim>-1</dim>
					<dim>-1</dim>
					<dim>12</dim>
					<dim>64</dim>
				</port>
				<port id="1" precision="I64">
					<dim>4</dim>
				</port>
			</input>
			<output>
				<port id="2" precision="FP32" names="258,k.3">
					<dim>-1</dim>
					<dim>12</dim>
					<dim>-1</dim>
					<dim>64</dim>
				</port>
			</output>
		</layer>
		<layer id="255" name="__module.encoder.layer.1.attention.attn/aten::matmul/MatMul" type="MatMul" version="opset1">
			<data transpose_a="false" transpose_b="true" />
			<input>
				<port id="0" precision="FP32">
					<dim>-1</dim>
					<dim>12</dim>
					<dim>-1</dim>
					<dim>64</dim>
				</port>
				<port id="1" precision="FP32">
					<dim>-1</dim>
					<dim>12</dim>
					<dim>-1</dim>
					<dim>64</dim>
				</port>
			</input>
			<output>
				<port id="2" precision="FP32" names="266,attention_scores.7">
					<dim>-1</dim>
					<dim>12</dim>
					<dim>-1</dim>
					<dim>-1</dim>
				</port>
			</output>
		</layer>
		<layer id="256" name="Constant_530456" type="Const" version="opset1">
			<data element_type="f32" shape="1, 1, 1, 1" offset="25164908" size="4" />
			<output>
				<port id="0" precision="FP32">
					<dim>1</dim>
					<dim>1</dim>
					<dim>1</dim>
					<dim>1</dim>
				</port>
			</output>
		</layer>
		<layer id="257" name="__module.encoder.layer.1.attention.attn/aten::div/Divide" type="Divide" version="opset1">
			<data auto_broadcast="numpy" m_pythondiv="true" />
			<input>
				<port id="0" precision="FP32">
					<dim>-1</dim>
					<dim>12</dim>
					<dim>-1</dim>
					<dim>-1</dim>
				</port>
				<port id="1" precision="FP32">
					<dim>1</dim>
					<dim>1</dim>
					<dim>1</dim>
					<dim>1</dim>
				</port>
			</input>
			<output>
				<port id="2" precision="FP32" names="267_1">
					<dim>-1</dim>
					<dim>12</dim>
					<dim>-1</dim>
					<dim>-1</dim>
				</port>
			</output>
		</layer>
		<layer id="258" name="__module.encoder.layer.1.attention.attn/aten::add_/Add" type="Add" version="opset1">
			<data auto_broadcast="numpy" />
			<input>
				<port id="0" precision="FP32">
					<dim>-1</dim>
					<dim>12</dim>
					<dim>-1</dim>
					<dim>-1</dim>
				</port>
				<port id="1" precision="FP32">
					<dim>-1</dim>
					<dim>12</dim>
					<dim>-1</dim>
					<dim>-1</dim>
				</port>
			</input>
			<output>
				<port id="2" precision="FP32" names="267,attention_scores.9">
					<dim>-1</dim>
					<dim>12</dim>
					<dim>-1</dim>
					<dim>-1</dim>
				</port>
			</output>
		</layer>
		<layer id="259" name="__module.encoder.layer.1.attention.attn/aten::add/Add" type="Add" version="opset1">
			<data auto_broadcast="numpy" />
			<input>
				<port id="0" precision="FP32">
					<dim>-1</dim>
					<dim>12</dim>
					<dim>-1</dim>
					<dim>-1</dim>
				</port>
				<port id="1" precision="FP32">
					<dim>-1</dim>
					<dim>1</dim>
					<dim>1</dim>
					<dim>-1</dim>
				</port>
			</input>
			<output>
				<port id="2" precision="FP32" names="269,input.11">
					<dim>-1</dim>
					<dim>12</dim>
					<dim>-1</dim>
					<dim>-1</dim>
				</port>
			</output>
		</layer>
		<layer id="260" name="__module.encoder.layer.1.attention.attn/aten::softmax/Softmax" type="SoftMax" version="opset8">
			<data axis="-1" />
			<input>
				<port id="0" precision="FP32">
					<dim>-1</dim>
					<dim>12</dim>
					<dim>-1</dim>
					<dim>-1</dim>
				</port>
			</input>
			<output>
				<port id="1" precision="FP32" names="270,input.13">
					<dim>-1</dim>
					<dim>12</dim>
					<dim>-1</dim>
					<dim>-1</dim>
				</port>
			</output>
		</layer>
		<layer id="261" name="Constant_4001790" type="Const" version="opset1">
			<data element_type="i8" shape="768, 768" offset="32332560" size="589824" />
			<output>
				<port id="0" precision="I8">
					<dim>768</dim>
					<dim>768</dim>
				</port>
			</output>
		</layer>
		<layer id="262" name="Convert_4001791" type="Convert" version="opset1">
			<data destination_type="f32" />
			<input>
				<port id="0" precision="I8">
					<dim>768</dim>
					<dim>768</dim>
				</port>
			</input>
			<output>
				<port id="1" precision="FP32">
					<dim>768</dim>
					<dim>768</dim>
				</port>
			</output>
		</layer>
		<layer id="263" name="Constant_4001792" type="Const" version="opset1">
			<data element_type="f32" shape="768, 1" offset="32922384" size="3072" />
			<output>
				<port id="0" precision="FP32">
					<dim>768</dim>
					<dim>1</dim>
				</port>
			</output>
		</layer>
		<layer id="264" name="__module.encoder.layer.1.attention.attn.v/aten::linear/MatMul/fq_weights_1" type="Multiply" version="opset1">
			<data auto_broadcast="numpy" />
			<input>
				<port id="0" precision="FP32">
					<dim>768</dim>
					<dim>768</dim>
				</port>
				<port id="1" precision="FP32">
					<dim>768</dim>
					<dim>1</dim>
				</port>
			</input>
			<output>
				<port id="2" precision="FP32">
					<dim>768</dim>
					<dim>768</dim>
				</port>
			</output>
		</layer>
		<layer id="265" name="__module.encoder.layer.1.attention.attn.v/aten::linear/MatMul" type="MatMul" version="opset1">
			<data transpose_a="false" transpose_b="true" />
			<input>
				<port id="0" precision="FP32">
					<dim>-1</dim>
					<dim>-1</dim>
					<dim>768</dim>
				</port>
				<port id="1" precision="FP32">
					<dim>768</dim>
					<dim>768</dim>
				</port>
			</input>
			<output>
				<port id="2" precision="FP32">
					<dim>-1</dim>
					<dim>-1</dim>
					<dim>768</dim>
				</port>
			</output>
		</layer>
		<layer id="266" name="Constant_530457" type="Const" version="opset1">
			<data element_type="f32" shape="1, 1, 768" offset="32925456" size="3072" />
			<output>
				<port id="0" precision="FP32">
					<dim>1</dim>
					<dim>1</dim>
					<dim>768</dim>
				</port>
			</output>
		</layer>
		<layer id="267" name="__module.encoder.layer.1.attention.attn.v/aten::linear/Add" type="Add" version="opset1">
			<data auto_broadcast="numpy" />
			<input>
				<port id="0" precision="FP32">
					<dim>-1</dim>
					<dim>-1</dim>
					<dim>768</dim>
				</port>
				<port id="1" precision="FP32">
					<dim>1</dim>
					<dim>1</dim>
					<dim>768</dim>
				</port>
			</input>
			<output>
				<port id="2" precision="FP32" names="246,x.23">
					<dim>-1</dim>
					<dim>-1</dim>
					<dim>768</dim>
				</port>
			</output>
		</layer>
		<layer id="268" name="__module.encoder.layer.1.attention.attn/prim::ListConstruct/Concat_2" type="Const" version="opset1">
			<data element_type="i64" shape="4" offset="24568868" size="32" />
			<output>
				<port id="0" precision="I64">
					<dim>4</dim>
				</port>
			</output>
		</layer>
		<layer id="269" name="__module.encoder.layer.1.attention.attn/aten::view/Reshape_2" type="Reshape" version="opset1">
			<data special_zero="true" />
			<input>
				<port id="0" precision="FP32">
					<dim>-1</dim>
					<dim>-1</dim>
					<dim>768</dim>
				</port>
				<port id="1" precision="I64">
					<dim>4</dim>
				</port>
			</input>
			<output>
				<port id="2" precision="FP32" names="262,x.25">
					<dim>-1</dim>
					<dim>-1</dim>
					<dim>12</dim>
					<dim>64</dim>
				</port>
			</output>
		</layer>
		<layer id="270" name="Constant_521929" type="Const" version="opset1">
			<data element_type="i64" shape="4" offset="24568900" size="32" />
			<output>
				<port id="0" precision="I64" names="263">
					<dim>4</dim>
				</port>
			</output>
		</layer>
		<layer id="271" name="__module.encoder.layer.1.attention.attn/aten::permute/Transpose_2" type="Transpose" version="opset1">
			<input>
				<port id="0" precision="FP32">
					<dim>-1</dim>
					<dim>-1</dim>
					<dim>12</dim>
					<dim>64</dim>
				</port>
				<port id="1" precision="I64">
					<dim>4</dim>
				</port>
			</input>
			<output>
				<port id="2" precision="FP32" names="264">
					<dim>-1</dim>
					<dim>12</dim>
					<dim>-1</dim>
					<dim>64</dim>
				</port>
			</output>
		</layer>
		<layer id="272" name="__module.encoder.layer.1.attention.attn/aten::matmul/MatMul_1" type="MatMul" version="opset1">
			<data transpose_a="false" transpose_b="false" />
			<input>
				<port id="0" precision="FP32">
					<dim>-1</dim>
					<dim>12</dim>
					<dim>-1</dim>
					<dim>-1</dim>
				</port>
				<port id="1" precision="FP32">
					<dim>-1</dim>
					<dim>12</dim>
					<dim>-1</dim>
					<dim>64</dim>
				</port>
			</input>
			<output>
				<port id="2" precision="FP32" names="272,c.5">
					<dim>-1</dim>
					<dim>12</dim>
					<dim>-1</dim>
					<dim>64</dim>
				</port>
			</output>
		</layer>
		<layer id="273" name="Constant_522013" type="Const" version="opset1">
			<data element_type="i64" shape="4" offset="24568900" size="32" />
			<output>
				<port id="0" precision="I64" names="273">
					<dim>4</dim>
				</port>
			</output>
		</layer>
		<layer id="274" name="__module.encoder.layer.1.attention.attn/aten::permute/Transpose_3" type="Transpose" version="opset1">
			<input>
				<port id="0" precision="FP32">
					<dim>-1</dim>
					<dim>12</dim>
					<dim>-1</dim>
					<dim>64</dim>
				</port>
				<port id="1" precision="I64">
					<dim>4</dim>
				</port>
			</input>
			<output>
				<port id="2" precision="FP32" names="274">
					<dim>-1</dim>
					<dim>-1</dim>
					<dim>12</dim>
					<dim>64</dim>
				</port>
			</output>
		</layer>
		<layer id="275" name="__module.encoder.layer.1.attention.attn/prim::ListConstruct/Concat_3" type="Const" version="opset1">
			<data element_type="i64" shape="3" offset="25761480" size="24" />
			<output>
				<port id="0" precision="I64">
					<dim>3</dim>
				</port>
			</output>
		</layer>
		<layer id="276" name="__module.encoder.layer.1.attention.attn/aten::view/Reshape_3" type="Reshape" version="opset1">
			<data special_zero="true" />
			<input>
				<port id="0" precision="FP32">
					<dim>-1</dim>
					<dim>-1</dim>
					<dim>12</dim>
					<dim>64</dim>
				</port>
				<port id="1" precision="I64">
					<dim>3</dim>
				</port>
			</input>
			<output>
				<port id="2" precision="FP32" names="279">
					<dim>-1</dim>
					<dim>-1</dim>
					<dim>768</dim>
				</port>
			</output>
		</layer>
		<layer id="277" name="__module.encoder.layer.1.attention.attn/aten::view/Reshape_3_0_0/nncf_smooth_quant/scale" type="Const" version="opset1">
			<data element_type="f32" shape="1, 1, 768" offset="32928528" size="3072" />
			<output>
				<port id="0" precision="FP32">
					<dim>1</dim>
					<dim>1</dim>
					<dim>768</dim>
				</port>
			</output>
		</layer>
		<layer id="278" name="__module.encoder.layer.1.attention.attn/aten::view/Reshape_3_0_0/nncf_smooth_quant" type="Multiply" version="opset1">
			<data auto_broadcast="numpy" />
			<input>
				<port id="0" precision="FP32">
					<dim>-1</dim>
					<dim>-1</dim>
					<dim>768</dim>
				</port>
				<port id="1" precision="FP32">
					<dim>1</dim>
					<dim>1</dim>
					<dim>768</dim>
				</port>
			</input>
			<output>
				<port id="2" precision="FP32">
					<dim>-1</dim>
					<dim>-1</dim>
					<dim>768</dim>
				</port>
			</output>
		</layer>
		<layer id="279" name="__module.encoder.layer.1.attention.attn/aten::view/Reshape_3_0_0/nncf_smooth_quant/fq_output_0/input_low" type="Const" version="opset1">
			<data element_type="f32" shape="" offset="32931600" size="4" />
			<output>
				<port id="0" precision="FP32" />
			</output>
		</layer>
		<layer id="280" name="__module.encoder.layer.1.attention.attn/aten::view/Reshape_3_0_0/nncf_smooth_quant/fq_output_0/input_high" type="Const" version="opset1">
			<data element_type="f32" shape="" offset="32931604" size="4" />
			<output>
				<port id="0" precision="FP32" />
			</output>
		</layer>
		<layer id="281" name="__module.encoder.layer.1.attention.attn/aten::view/Reshape_3_0_0/nncf_smooth_quant/fq_output_0/output_low" type="Const" version="opset1">
			<data element_type="f32" shape="" offset="32931600" size="4" />
			<output>
				<port id="0" precision="FP32" />
			</output>
		</layer>
		<layer id="282" name="__module.encoder.layer.1.attention.attn/aten::view/Reshape_3_0_0/nncf_smooth_quant/fq_output_0/output_high" type="Const" version="opset1">
			<data element_type="f32" shape="" offset="32931604" size="4" />
			<output>
				<port id="0" precision="FP32" />
			</output>
		</layer>
		<layer id="283" name="__module.encoder.layer.1.attention.attn/aten::view/Reshape_3_0_0/nncf_smooth_quant/fq_output_0" type="FakeQuantize" version="opset1">
			<data levels="256" auto_broadcast="numpy" />
			<input>
				<port id="0" precision="FP32">
					<dim>-1</dim>
					<dim>-1</dim>
					<dim>768</dim>
				</port>
				<port id="1" precision="FP32" />
				<port id="2" precision="FP32" />
				<port id="3" precision="FP32" />
				<port id="4" precision="FP32" />
			</input>
			<output>
				<port id="5" precision="FP32">
					<dim>-1</dim>
					<dim>-1</dim>
					<dim>768</dim>
				</port>
			</output>
		</layer>
		<layer id="284" name="Constant_4001794" type="Const" version="opset1">
			<data element_type="i8" shape="768, 768" offset="32931608" size="589824" />
			<output>
				<port id="0" precision="I8">
					<dim>768</dim>
					<dim>768</dim>
				</port>
			</output>
		</layer>
		<layer id="285" name="Convert_4001795" type="Convert" version="opset1">
			<data destination_type="f32" />
			<input>
				<port id="0" precision="I8">
					<dim>768</dim>
					<dim>768</dim>
				</port>
			</input>
			<output>
				<port id="1" precision="FP32">
					<dim>768</dim>
					<dim>768</dim>
				</port>
			</output>
		</layer>
		<layer id="286" name="Constant_4001796" type="Const" version="opset1">
			<data element_type="f32" shape="768, 1" offset="33521432" size="3072" />
			<output>
				<port id="0" precision="FP32">
					<dim>768</dim>
					<dim>1</dim>
				</port>
			</output>
		</layer>
		<layer id="287" name="__module.encoder.layer.1.attention.attn.o/aten::linear/MatMul/fq_weights_1" type="Multiply" version="opset1">
			<data auto_broadcast="numpy" />
			<input>
				<port id="0" precision="FP32">
					<dim>768</dim>
					<dim>768</dim>
				</port>
				<port id="1" precision="FP32">
					<dim>768</dim>
					<dim>1</dim>
				</port>
			</input>
			<output>
				<port id="2" precision="FP32">
					<dim>768</dim>
					<dim>768</dim>
				</port>
			</output>
		</layer>
		<layer id="288" name="__module.encoder.layer.1.attention.attn.o/aten::linear/MatMul" type="MatMul" version="opset1">
			<data transpose_a="false" transpose_b="true" />
			<input>
				<port id="0" precision="FP32">
					<dim>-1</dim>
					<dim>-1</dim>
					<dim>768</dim>
				</port>
				<port id="1" precision="FP32">
					<dim>768</dim>
					<dim>768</dim>
				</port>
			</input>
			<output>
				<port id="2" precision="FP32">
					<dim>-1</dim>
					<dim>-1</dim>
					<dim>768</dim>
				</port>
			</output>
		</layer>
		<layer id="289" name="Constant_530458" type="Const" version="opset1">
			<data element_type="f32" shape="1, 1, 768" offset="33524504" size="3072" />
			<output>
				<port id="0" precision="FP32">
					<dim>1</dim>
					<dim>1</dim>
					<dim>768</dim>
				</port>
			</output>
		</layer>
		<layer id="290" name="__module.encoder.layer.1.attention.attn.o/aten::linear/Add" type="Add" version="opset1">
			<data auto_broadcast="numpy" />
			<input>
				<port id="0" precision="FP32">
					<dim>-1</dim>
					<dim>-1</dim>
					<dim>768</dim>
				</port>
				<port id="1" precision="FP32">
					<dim>1</dim>
					<dim>1</dim>
					<dim>768</dim>
				</port>
			</input>
			<output>
				<port id="2" precision="FP32" names="282,input.15">
					<dim>-1</dim>
					<dim>-1</dim>
					<dim>768</dim>
				</port>
			</output>
		</layer>
		<layer id="291" name="__module.encoder.layer.1.attention/aten::add/Add" type="Add" version="opset1">
			<data auto_broadcast="numpy" />
			<input>
				<port id="0" precision="FP32">
					<dim>-1</dim>
					<dim>-1</dim>
					<dim>768</dim>
				</port>
				<port id="1" precision="FP32">
					<dim>-1</dim>
					<dim>-1</dim>
					<dim>768</dim>
				</port>
			</input>
			<output>
				<port id="2" precision="FP32" names="284">
					<dim>-1</dim>
					<dim>-1</dim>
					<dim>768</dim>
				</port>
			</output>
		</layer>
		<layer id="292" name="__module.encoder.layer.1.attention.LayerNorm/aten::layer_norm/Multiply" type="Const" version="opset1">
			<data element_type="i32" shape="1" offset="23963664" size="4" />
			<output>
				<port id="0" precision="I32">
					<dim>1</dim>
				</port>
			</output>
		</layer>
		<layer id="293" name="__module.encoder.layer.1.attention.LayerNorm/aten::layer_norm/MVN" type="MVN" version="opset6">
			<data eps="9.9999997473787516e-06" normalize_variance="true" eps_mode="INSIDE_SQRT" />
			<input>
				<port id="0" precision="FP32">
					<dim>-1</dim>
					<dim>-1</dim>
					<dim>768</dim>
				</port>
				<port id="1" precision="I32">
					<dim>1</dim>
				</port>
			</input>
			<output>
				<port id="2" precision="FP32">
					<dim>-1</dim>
					<dim>-1</dim>
					<dim>768</dim>
				</port>
			</output>
		</layer>
		<layer id="294" name="Constant_530459" type="Const" version="opset1">
			<data element_type="f32" shape="1, 1, 768" offset="33527576" size="3072" />
			<output>
				<port id="0" precision="FP32">
					<dim>1</dim>
					<dim>1</dim>
					<dim>768</dim>
				</port>
			</output>
		</layer>
		<layer id="295" name="__module.encoder.layer.1.attention.LayerNorm/aten::layer_norm/Multiply_1" type="Multiply" version="opset1">
			<data auto_broadcast="numpy" />
			<input>
				<port id="0" precision="FP32">
					<dim>-1</dim>
					<dim>-1</dim>
					<dim>768</dim>
				</port>
				<port id="1" precision="FP32">
					<dim>1</dim>
					<dim>1</dim>
					<dim>768</dim>
				</port>
			</input>
			<output>
				<port id="2" precision="FP32">
					<dim>-1</dim>
					<dim>-1</dim>
					<dim>768</dim>
				</port>
			</output>
		</layer>
		<layer id="296" name="Constant_530460" type="Const" version="opset1">
			<data element_type="f32" shape="1, 1, 768" offset="33530648" size="3072" />
			<output>
				<port id="0" precision="FP32">
					<dim>1</dim>
					<dim>1</dim>
					<dim>768</dim>
				</port>
			</output>
		</layer>
		<layer id="297" name="__module.encoder.layer.1.attention.LayerNorm/aten::layer_norm/Add" type="Add" version="opset1">
			<data auto_broadcast="numpy" />
			<input>
				<port id="0" precision="FP32">
					<dim>-1</dim>
					<dim>-1</dim>
					<dim>768</dim>
				</port>
				<port id="1" precision="FP32">
					<dim>1</dim>
					<dim>1</dim>
					<dim>768</dim>
				</port>
			</input>
			<output>
				<port id="2" precision="FP32" names="288,input_tensor.3">
					<dim>-1</dim>
					<dim>-1</dim>
					<dim>768</dim>
				</port>
			</output>
		</layer>
		<layer id="298" name="__module.encoder.layer.1.attention.LayerNorm/aten::layer_norm/Add_0_0/nncf_smooth_quant/scale" type="Const" version="opset1">
			<data element_type="f32" shape="1, 1, 768" offset="33533720" size="3072" />
			<output>
				<port id="0" precision="FP32">
					<dim>1</dim>
					<dim>1</dim>
					<dim>768</dim>
				</port>
			</output>
		</layer>
		<layer id="299" name="__module.encoder.layer.1.attention.LayerNorm/aten::layer_norm/Add_0_0/nncf_smooth_quant" type="Multiply" version="opset1">
			<data auto_broadcast="numpy" />
			<input>
				<port id="0" precision="FP32">
					<dim>-1</dim>
					<dim>-1</dim>
					<dim>768</dim>
				</port>
				<port id="1" precision="FP32">
					<dim>1</dim>
					<dim>1</dim>
					<dim>768</dim>
				</port>
			</input>
			<output>
				<port id="2" precision="FP32">
					<dim>-1</dim>
					<dim>-1</dim>
					<dim>768</dim>
				</port>
			</output>
		</layer>
		<layer id="300" name="__module.encoder.layer.1.attention.LayerNorm/aten::layer_norm/Add_0_0/nncf_smooth_quant/fq_output_0/input_low" type="Const" version="opset1">
			<data element_type="f32" shape="" offset="33536792" size="4" />
			<output>
				<port id="0" precision="FP32" />
			</output>
		</layer>
		<layer id="301" name="__module.encoder.layer.1.attention.LayerNorm/aten::layer_norm/Add_0_0/nncf_smooth_quant/fq_output_0/input_high" type="Const" version="opset1">
			<data element_type="f32" shape="" offset="33536796" size="4" />
			<output>
				<port id="0" precision="FP32" />
			</output>
		</layer>
		<layer id="302" name="__module.encoder.layer.1.attention.LayerNorm/aten::layer_norm/Add_0_0/nncf_smooth_quant/fq_output_0/output_low" type="Const" version="opset1">
			<data element_type="f32" shape="" offset="33536792" size="4" />
			<output>
				<port id="0" precision="FP32" />
			</output>
		</layer>
		<layer id="303" name="__module.encoder.layer.1.attention.LayerNorm/aten::layer_norm/Add_0_0/nncf_smooth_quant/fq_output_0/output_high" type="Const" version="opset1">
			<data element_type="f32" shape="" offset="33536796" size="4" />
			<output>
				<port id="0" precision="FP32" />
			</output>
		</layer>
		<layer id="304" name="__module.encoder.layer.1.attention.LayerNorm/aten::layer_norm/Add_0_0/nncf_smooth_quant/fq_output_0" type="FakeQuantize" version="opset1">
			<data levels="256" auto_broadcast="numpy" />
			<input>
				<port id="0" precision="FP32">
					<dim>-1</dim>
					<dim>-1</dim>
					<dim>768</dim>
				</port>
				<port id="1" precision="FP32" />
				<port id="2" precision="FP32" />
				<port id="3" precision="FP32" />
				<port id="4" precision="FP32" />
			</input>
			<output>
				<port id="5" precision="FP32">
					<dim>-1</dim>
					<dim>-1</dim>
					<dim>768</dim>
				</port>
			</output>
		</layer>
		<layer id="305" name="Constant_4001798" type="Const" version="opset1">
			<data element_type="i8" shape="3072, 768" offset="33536800" size="2359296" />
			<output>
				<port id="0" precision="I8">
					<dim>3072</dim>
					<dim>768</dim>
				</port>
			</output>
		</layer>
		<layer id="306" name="Convert_4001799" type="Convert" version="opset1">
			<data destination_type="f32" />
			<input>
				<port id="0" precision="I8">
					<dim>3072</dim>
					<dim>768</dim>
				</port>
			</input>
			<output>
				<port id="1" precision="FP32">
					<dim>3072</dim>
					<dim>768</dim>
				</port>
			</output>
		</layer>
		<layer id="307" name="Constant_4001800" type="Const" version="opset1">
			<data element_type="f32" shape="3072, 1" offset="35896096" size="12288" />
			<output>
				<port id="0" precision="FP32">
					<dim>3072</dim>
					<dim>1</dim>
				</port>
			</output>
		</layer>
		<layer id="308" name="__module.encoder.layer.1.intermediate.dense/aten::linear/MatMul/fq_weights_1" type="Multiply" version="opset1">
			<data auto_broadcast="numpy" />
			<input>
				<port id="0" precision="FP32">
					<dim>3072</dim>
					<dim>768</dim>
				</port>
				<port id="1" precision="FP32">
					<dim>3072</dim>
					<dim>1</dim>
				</port>
			</input>
			<output>
				<port id="2" precision="FP32">
					<dim>3072</dim>
					<dim>768</dim>
				</port>
			</output>
		</layer>
		<layer id="309" name="__module.encoder.layer.1.intermediate.dense/aten::linear/MatMul" type="MatMul" version="opset1">
			<data transpose_a="false" transpose_b="true" />
			<input>
				<port id="0" precision="FP32">
					<dim>-1</dim>
					<dim>-1</dim>
					<dim>768</dim>
				</port>
				<port id="1" precision="FP32">
					<dim>3072</dim>
					<dim>768</dim>
				</port>
			</input>
			<output>
				<port id="2" precision="FP32">
					<dim>-1</dim>
					<dim>-1</dim>
					<dim>3072</dim>
				</port>
			</output>
		</layer>
		<layer id="310" name="Constant_530461" type="Const" version="opset1">
			<data element_type="f32" shape="1, 1, 3072" offset="35908384" size="12288" />
			<output>
				<port id="0" precision="FP32">
					<dim>1</dim>
					<dim>1</dim>
					<dim>3072</dim>
				</port>
			</output>
		</layer>
		<layer id="311" name="__module.encoder.layer.1.intermediate.dense/aten::linear/Add" type="Add" version="opset1">
			<data auto_broadcast="numpy" />
			<input>
				<port id="0" precision="FP32">
					<dim>-1</dim>
					<dim>-1</dim>
					<dim>3072</dim>
				</port>
				<port id="1" precision="FP32">
					<dim>1</dim>
					<dim>1</dim>
					<dim>3072</dim>
				</port>
			</input>
			<output>
				<port id="2" precision="FP32" names="292">
					<dim>-1</dim>
					<dim>-1</dim>
					<dim>3072</dim>
				</port>
			</output>
		</layer>
		<layer id="312" name="__module.encoder.layer.1.intermediate.intermediate_act_fn/aten::gelu/Gelu" type="Gelu" version="opset7">
			<data approximation_mode="ERF" />
			<input>
				<port id="0" precision="FP32">
					<dim>-1</dim>
					<dim>-1</dim>
					<dim>3072</dim>
				</port>
			</input>
			<output>
				<port id="1" precision="FP32" names="293">
					<dim>-1</dim>
					<dim>-1</dim>
					<dim>3072</dim>
				</port>
			</output>
		</layer>
		<layer id="313" name="__module.encoder.layer.1.intermediate.intermediate_act_fn/aten::gelu/Gelu_0_0/nncf_smooth_quant/scale" type="Const" version="opset1">
			<data element_type="f32" shape="1, 1, 3072" offset="35920672" size="12288" />
			<output>
				<port id="0" precision="FP32">
					<dim>1</dim>
					<dim>1</dim>
					<dim>3072</dim>
				</port>
			</output>
		</layer>
		<layer id="314" name="__module.encoder.layer.1.intermediate.intermediate_act_fn/aten::gelu/Gelu_0_0/nncf_smooth_quant" type="Multiply" version="opset1">
			<data auto_broadcast="numpy" />
			<input>
				<port id="0" precision="FP32">
					<dim>-1</dim>
					<dim>-1</dim>
					<dim>3072</dim>
				</port>
				<port id="1" precision="FP32">
					<dim>1</dim>
					<dim>1</dim>
					<dim>3072</dim>
				</port>
			</input>
			<output>
				<port id="2" precision="FP32">
					<dim>-1</dim>
					<dim>-1</dim>
					<dim>3072</dim>
				</port>
			</output>
		</layer>
		<layer id="315" name="__module.encoder.layer.1.intermediate.intermediate_act_fn/aten::gelu/Gelu_0_0/nncf_smooth_quant/fq_output_0/input_low" type="Const" version="opset1">
			<data element_type="f32" shape="" offset="35932960" size="4" />
			<output>
				<port id="0" precision="FP32" />
			</output>
		</layer>
		<layer id="316" name="__module.encoder.layer.1.intermediate.intermediate_act_fn/aten::gelu/Gelu_0_0/nncf_smooth_quant/fq_output_0/input_high" type="Const" version="opset1">
			<data element_type="f32" shape="" offset="35932964" size="4" />
			<output>
				<port id="0" precision="FP32" />
			</output>
		</layer>
		<layer id="317" name="__module.encoder.layer.1.intermediate.intermediate_act_fn/aten::gelu/Gelu_0_0/nncf_smooth_quant/fq_output_0/output_low" type="Const" version="opset1">
			<data element_type="f32" shape="" offset="35932960" size="4" />
			<output>
				<port id="0" precision="FP32" />
			</output>
		</layer>
		<layer id="318" name="__module.encoder.layer.1.intermediate.intermediate_act_fn/aten::gelu/Gelu_0_0/nncf_smooth_quant/fq_output_0/output_high" type="Const" version="opset1">
			<data element_type="f32" shape="" offset="35932964" size="4" />
			<output>
				<port id="0" precision="FP32" />
			</output>
		</layer>
		<layer id="319" name="__module.encoder.layer.1.intermediate.intermediate_act_fn/aten::gelu/Gelu_0_0/nncf_smooth_quant/fq_output_0" type="FakeQuantize" version="opset1">
			<data levels="256" auto_broadcast="numpy" />
			<input>
				<port id="0" precision="FP32">
					<dim>-1</dim>
					<dim>-1</dim>
					<dim>3072</dim>
				</port>
				<port id="1" precision="FP32" />
				<port id="2" precision="FP32" />
				<port id="3" precision="FP32" />
				<port id="4" precision="FP32" />
			</input>
			<output>
				<port id="5" precision="FP32">
					<dim>-1</dim>
					<dim>-1</dim>
					<dim>3072</dim>
				</port>
			</output>
		</layer>
		<layer id="320" name="Constant_4001802" type="Const" version="opset1">
			<data element_type="i8" shape="768, 3072" offset="35932968" size="2359296" />
			<output>
				<port id="0" precision="I8">
					<dim>768</dim>
					<dim>3072</dim>
				</port>
			</output>
		</layer>
		<layer id="321" name="Convert_4001803" type="Convert" version="opset1">
			<data destination_type="f32" />
			<input>
				<port id="0" precision="I8">
					<dim>768</dim>
					<dim>3072</dim>
				</port>
			</input>
			<output>
				<port id="1" precision="FP32">
					<dim>768</dim>
					<dim>3072</dim>
				</port>
			</output>
		</layer>
		<layer id="322" name="Constant_4001804" type="Const" version="opset1">
			<data element_type="f32" shape="768, 1" offset="38292264" size="3072" />
			<output>
				<port id="0" precision="FP32">
					<dim>768</dim>
					<dim>1</dim>
				</port>
			</output>
		</layer>
		<layer id="323" name="__module.encoder.layer.1.output.dense/aten::linear/MatMul/fq_weights_1" type="Multiply" version="opset1">
			<data auto_broadcast="numpy" />
			<input>
				<port id="0" precision="FP32">
					<dim>768</dim>
					<dim>3072</dim>
				</port>
				<port id="1" precision="FP32">
					<dim>768</dim>
					<dim>1</dim>
				</port>
			</input>
			<output>
				<port id="2" precision="FP32">
					<dim>768</dim>
					<dim>3072</dim>
				</port>
			</output>
		</layer>
		<layer id="324" name="__module.encoder.layer.1.output.dense/aten::linear/MatMul" type="MatMul" version="opset1">
			<data transpose_a="false" transpose_b="true" />
			<input>
				<port id="0" precision="FP32">
					<dim>-1</dim>
					<dim>-1</dim>
					<dim>3072</dim>
				</port>
				<port id="1" precision="FP32">
					<dim>768</dim>
					<dim>3072</dim>
				</port>
			</input>
			<output>
				<port id="2" precision="FP32">
					<dim>-1</dim>
					<dim>-1</dim>
					<dim>768</dim>
				</port>
			</output>
		</layer>
		<layer id="325" name="Constant_530462" type="Const" version="opset1">
			<data element_type="f32" shape="1, 1, 768" offset="38295336" size="3072" />
			<output>
				<port id="0" precision="FP32">
					<dim>1</dim>
					<dim>1</dim>
					<dim>768</dim>
				</port>
			</output>
		</layer>
		<layer id="326" name="__module.encoder.layer.1.output.dense/aten::linear/Add" type="Add" version="opset1">
			<data auto_broadcast="numpy" />
			<input>
				<port id="0" precision="FP32">
					<dim>-1</dim>
					<dim>-1</dim>
					<dim>768</dim>
				</port>
				<port id="1" precision="FP32">
					<dim>1</dim>
					<dim>1</dim>
					<dim>768</dim>
				</port>
			</input>
			<output>
				<port id="2" precision="FP32" names="298,input.17">
					<dim>-1</dim>
					<dim>-1</dim>
					<dim>768</dim>
				</port>
			</output>
		</layer>
		<layer id="327" name="__module.encoder.layer.1.output/aten::add/Add" type="Add" version="opset1">
			<data auto_broadcast="numpy" />
			<input>
				<port id="0" precision="FP32">
					<dim>-1</dim>
					<dim>-1</dim>
					<dim>768</dim>
				</port>
				<port id="1" precision="FP32">
					<dim>-1</dim>
					<dim>-1</dim>
					<dim>768</dim>
				</port>
			</input>
			<output>
				<port id="2" precision="FP32" names="300">
					<dim>-1</dim>
					<dim>-1</dim>
					<dim>768</dim>
				</port>
			</output>
		</layer>
		<layer id="328" name="__module.encoder.layer.1.output.LayerNorm/aten::layer_norm/Multiply" type="Const" version="opset1">
			<data element_type="i32" shape="1" offset="23963664" size="4" />
			<output>
				<port id="0" precision="I32">
					<dim>1</dim>
				</port>
			</output>
		</layer>
		<layer id="329" name="__module.encoder.layer.1.output.LayerNorm/aten::layer_norm/MVN" type="MVN" version="opset6">
			<data eps="9.9999997473787516e-06" normalize_variance="true" eps_mode="INSIDE_SQRT" />
			<input>
				<port id="0" precision="FP32">
					<dim>-1</dim>
					<dim>-1</dim>
					<dim>768</dim>
				</port>
				<port id="1" precision="I32">
					<dim>1</dim>
				</port>
			</input>
			<output>
				<port id="2" precision="FP32">
					<dim>-1</dim>
					<dim>-1</dim>
					<dim>768</dim>
				</port>
			</output>
		</layer>
		<layer id="330" name="Constant_530463" type="Const" version="opset1">
			<data element_type="f32" shape="1, 1, 768" offset="38298408" size="3072" />
			<output>
				<port id="0" precision="FP32">
					<dim>1</dim>
					<dim>1</dim>
					<dim>768</dim>
				</port>
			</output>
		</layer>
		<layer id="331" name="__module.encoder.layer.1.output.LayerNorm/aten::layer_norm/Multiply_1" type="Multiply" version="opset1">
			<data auto_broadcast="numpy" />
			<input>
				<port id="0" precision="FP32">
					<dim>-1</dim>
					<dim>-1</dim>
					<dim>768</dim>
				</port>
				<port id="1" precision="FP32">
					<dim>1</dim>
					<dim>1</dim>
					<dim>768</dim>
				</port>
			</input>
			<output>
				<port id="2" precision="FP32">
					<dim>-1</dim>
					<dim>-1</dim>
					<dim>768</dim>
				</port>
			</output>
		</layer>
		<layer id="332" name="Constant_530464" type="Const" version="opset1">
			<data element_type="f32" shape="1, 1, 768" offset="38301480" size="3072" />
			<output>
				<port id="0" precision="FP32">
					<dim>1</dim>
					<dim>1</dim>
					<dim>768</dim>
				</port>
			</output>
		</layer>
		<layer id="333" name="__module.encoder.layer.1.output.LayerNorm/aten::layer_norm/Add" type="Add" version="opset1">
			<data auto_broadcast="numpy" />
			<input>
				<port id="0" precision="FP32">
					<dim>-1</dim>
					<dim>-1</dim>
					<dim>768</dim>
				</port>
				<port id="1" precision="FP32">
					<dim>1</dim>
					<dim>1</dim>
					<dim>768</dim>
				</port>
			</input>
			<output>
				<port id="2" precision="FP32" names="304,hidden_states.7">
					<dim>-1</dim>
					<dim>-1</dim>
					<dim>768</dim>
				</port>
			</output>
		</layer>
		<layer id="334" name="__module.encoder.layer.1.output.LayerNorm/aten::layer_norm/Add_0_0/nncf_smooth_quant/scale" type="Const" version="opset1">
			<data element_type="f32" shape="1, 1, 768" offset="38304552" size="3072" />
			<output>
				<port id="0" precision="FP32">
					<dim>1</dim>
					<dim>1</dim>
					<dim>768</dim>
				</port>
			</output>
		</layer>
		<layer id="335" name="__module.encoder.layer.1.output.LayerNorm/aten::layer_norm/Add_0_0/nncf_smooth_quant" type="Multiply" version="opset1">
			<data auto_broadcast="numpy" />
			<input>
				<port id="0" precision="FP32">
					<dim>-1</dim>
					<dim>-1</dim>
					<dim>768</dim>
				</port>
				<port id="1" precision="FP32">
					<dim>1</dim>
					<dim>1</dim>
					<dim>768</dim>
				</port>
			</input>
			<output>
				<port id="2" precision="FP32">
					<dim>-1</dim>
					<dim>-1</dim>
					<dim>768</dim>
				</port>
			</output>
		</layer>
		<layer id="336" name="__module.encoder.layer.1.output.LayerNorm/aten::layer_norm/Add_0_0/nncf_smooth_quant/fq_output_0/input_low" type="Const" version="opset1">
			<data element_type="f32" shape="" offset="38307624" size="4" />
			<output>
				<port id="0" precision="FP32" />
			</output>
		</layer>
		<layer id="337" name="__module.encoder.layer.1.output.LayerNorm/aten::layer_norm/Add_0_0/nncf_smooth_quant/fq_output_0/input_high" type="Const" version="opset1">
			<data element_type="f32" shape="" offset="38307628" size="4" />
			<output>
				<port id="0" precision="FP32" />
			</output>
		</layer>
		<layer id="338" name="__module.encoder.layer.1.output.LayerNorm/aten::layer_norm/Add_0_0/nncf_smooth_quant/fq_output_0/output_low" type="Const" version="opset1">
			<data element_type="f32" shape="" offset="38307624" size="4" />
			<output>
				<port id="0" precision="FP32" />
			</output>
		</layer>
		<layer id="339" name="__module.encoder.layer.1.output.LayerNorm/aten::layer_norm/Add_0_0/nncf_smooth_quant/fq_output_0/output_high" type="Const" version="opset1">
			<data element_type="f32" shape="" offset="38307628" size="4" />
			<output>
				<port id="0" precision="FP32" />
			</output>
		</layer>
		<layer id="340" name="__module.encoder.layer.1.output.LayerNorm/aten::layer_norm/Add_0_0/nncf_smooth_quant/fq_output_0" type="FakeQuantize" version="opset1">
			<data levels="256" auto_broadcast="numpy" />
			<input>
				<port id="0" precision="FP32">
					<dim>-1</dim>
					<dim>-1</dim>
					<dim>768</dim>
				</port>
				<port id="1" precision="FP32" />
				<port id="2" precision="FP32" />
				<port id="3" precision="FP32" />
				<port id="4" precision="FP32" />
			</input>
			<output>
				<port id="5" precision="FP32">
					<dim>-1</dim>
					<dim>-1</dim>
					<dim>768</dim>
				</port>
			</output>
		</layer>
		<layer id="341" name="Constant_4001806" type="Const" version="opset1">
			<data element_type="i8" shape="768, 768" offset="38307632" size="589824" />
			<output>
				<port id="0" precision="I8">
					<dim>768</dim>
					<dim>768</dim>
				</port>
			</output>
		</layer>
		<layer id="342" name="Convert_4001807" type="Convert" version="opset1">
			<data destination_type="f32" />
			<input>
				<port id="0" precision="I8">
					<dim>768</dim>
					<dim>768</dim>
				</port>
			</input>
			<output>
				<port id="1" precision="FP32">
					<dim>768</dim>
					<dim>768</dim>
				</port>
			</output>
		</layer>
		<layer id="343" name="Constant_4001808" type="Const" version="opset1">
			<data element_type="f32" shape="768, 1" offset="38897456" size="3072" />
			<output>
				<port id="0" precision="FP32">
					<dim>768</dim>
					<dim>1</dim>
				</port>
			</output>
		</layer>
		<layer id="344" name="__module.encoder.layer.2.attention.attn.q/aten::linear/MatMul/fq_weights_1" type="Multiply" version="opset1">
			<data auto_broadcast="numpy" />
			<input>
				<port id="0" precision="FP32">
					<dim>768</dim>
					<dim>768</dim>
				</port>
				<port id="1" precision="FP32">
					<dim>768</dim>
					<dim>1</dim>
				</port>
			</input>
			<output>
				<port id="2" precision="FP32">
					<dim>768</dim>
					<dim>768</dim>
				</port>
			</output>
		</layer>
		<layer id="345" name="__module.encoder.layer.2.attention.attn.q/aten::linear/MatMul" type="MatMul" version="opset1">
			<data transpose_a="false" transpose_b="true" />
			<input>
				<port id="0" precision="FP32">
					<dim>-1</dim>
					<dim>-1</dim>
					<dim>768</dim>
				</port>
				<port id="1" precision="FP32">
					<dim>768</dim>
					<dim>768</dim>
				</port>
			</input>
			<output>
				<port id="2" precision="FP32">
					<dim>-1</dim>
					<dim>-1</dim>
					<dim>768</dim>
				</port>
			</output>
		</layer>
		<layer id="346" name="Constant_530465" type="Const" version="opset1">
			<data element_type="f32" shape="1, 1, 768" offset="38900528" size="3072" />
			<output>
				<port id="0" precision="FP32">
					<dim>1</dim>
					<dim>1</dim>
					<dim>768</dim>
				</port>
			</output>
		</layer>
		<layer id="347" name="__module.encoder.layer.2.attention.attn.q/aten::linear/Add" type="Add" version="opset1">
			<data auto_broadcast="numpy" />
			<input>
				<port id="0" precision="FP32">
					<dim>-1</dim>
					<dim>-1</dim>
					<dim>768</dim>
				</port>
				<port id="1" precision="FP32">
					<dim>1</dim>
					<dim>1</dim>
					<dim>768</dim>
				</port>
			</input>
			<output>
				<port id="2" precision="FP32" names="316,x.27">
					<dim>-1</dim>
					<dim>-1</dim>
					<dim>768</dim>
				</port>
			</output>
		</layer>
		<layer id="348" name="__module.encoder.layer.2.attention.attn.q/aten::linear/Add/fq_output_0/input_low" type="Const" version="opset1">
			<data element_type="f32" shape="" offset="38903600" size="4" />
			<output>
				<port id="0" precision="FP32" />
			</output>
		</layer>
		<layer id="349" name="__module.encoder.layer.2.attention.attn.q/aten::linear/Add/fq_output_0/input_high" type="Const" version="opset1">
			<data element_type="f32" shape="" offset="38903604" size="4" />
			<output>
				<port id="0" precision="FP32" />
			</output>
		</layer>
		<layer id="350" name="__module.encoder.layer.2.attention.attn.q/aten::linear/Add/fq_output_0/output_low" type="Const" version="opset1">
			<data element_type="f32" shape="" offset="38903600" size="4" />
			<output>
				<port id="0" precision="FP32" />
			</output>
		</layer>
		<layer id="351" name="__module.encoder.layer.2.attention.attn.q/aten::linear/Add/fq_output_0/output_high" type="Const" version="opset1">
			<data element_type="f32" shape="" offset="38903604" size="4" />
			<output>
				<port id="0" precision="FP32" />
			</output>
		</layer>
		<layer id="352" name="__module.encoder.layer.2.attention.attn.q/aten::linear/Add/fq_output_0" type="FakeQuantize" version="opset1">
			<data levels="256" auto_broadcast="numpy" />
			<input>
				<port id="0" precision="FP32">
					<dim>-1</dim>
					<dim>-1</dim>
					<dim>768</dim>
				</port>
				<port id="1" precision="FP32" />
				<port id="2" precision="FP32" />
				<port id="3" precision="FP32" />
				<port id="4" precision="FP32" />
			</input>
			<output>
				<port id="5" precision="FP32">
					<dim>-1</dim>
					<dim>-1</dim>
					<dim>768</dim>
				</port>
			</output>
		</layer>
		<layer id="353" name="__module.encoder.layer.2.attention.attn/prim::ListConstruct/Concat" type="Const" version="opset1">
			<data element_type="i64" shape="4" offset="24568868" size="32" />
			<output>
				<port id="0" precision="I64">
					<dim>4</dim>
				</port>
			</output>
		</layer>
		<layer id="354" name="__module.encoder.layer.2.attention.attn/aten::view/Reshape" type="Reshape" version="opset1">
			<data special_zero="true" />
			<input>
				<port id="0" precision="FP32">
					<dim>-1</dim>
					<dim>-1</dim>
					<dim>768</dim>
				</port>
				<port id="1" precision="I64">
					<dim>4</dim>
				</port>
			</input>
			<output>
				<port id="2" precision="FP32" names="326,x.29">
					<dim>-1</dim>
					<dim>-1</dim>
					<dim>12</dim>
					<dim>64</dim>
				</port>
			</output>
		</layer>
		<layer id="355" name="Constant_522142" type="Const" version="opset1">
			<data element_type="i64" shape="4" offset="24568900" size="32" />
			<output>
				<port id="0" precision="I64" names="327">
					<dim>4</dim>
				</port>
			</output>
		</layer>
		<layer id="356" name="__module.encoder.layer.2.attention.attn/aten::permute/Transpose" type="Transpose" version="opset1">
			<input>
				<port id="0" precision="FP32">
					<dim>-1</dim>
					<dim>-1</dim>
					<dim>12</dim>
					<dim>64</dim>
				</port>
				<port id="1" precision="I64">
					<dim>4</dim>
				</port>
			</input>
			<output>
				<port id="2" precision="FP32" names="328">
					<dim>-1</dim>
					<dim>12</dim>
					<dim>-1</dim>
					<dim>64</dim>
				</port>
			</output>
		</layer>
		<layer id="357" name="Constant_4001810" type="Const" version="opset1">
			<data element_type="i8" shape="768, 768" offset="38903608" size="589824" />
			<output>
				<port id="0" precision="I8">
					<dim>768</dim>
					<dim>768</dim>
				</port>
			</output>
		</layer>
		<layer id="358" name="Convert_4001811" type="Convert" version="opset1">
			<data destination_type="f32" />
			<input>
				<port id="0" precision="I8">
					<dim>768</dim>
					<dim>768</dim>
				</port>
			</input>
			<output>
				<port id="1" precision="FP32">
					<dim>768</dim>
					<dim>768</dim>
				</port>
			</output>
		</layer>
		<layer id="359" name="Constant_4001812" type="Const" version="opset1">
			<data element_type="f32" shape="768, 1" offset="39493432" size="3072" />
			<output>
				<port id="0" precision="FP32">
					<dim>768</dim>
					<dim>1</dim>
				</port>
			</output>
		</layer>
		<layer id="360" name="__module.encoder.layer.2.attention.attn.k/aten::linear/MatMul/fq_weights_1" type="Multiply" version="opset1">
			<data auto_broadcast="numpy" />
			<input>
				<port id="0" precision="FP32">
					<dim>768</dim>
					<dim>768</dim>
				</port>
				<port id="1" precision="FP32">
					<dim>768</dim>
					<dim>1</dim>
				</port>
			</input>
			<output>
				<port id="2" precision="FP32">
					<dim>768</dim>
					<dim>768</dim>
				</port>
			</output>
		</layer>
		<layer id="361" name="__module.encoder.layer.2.attention.attn.k/aten::linear/MatMul" type="MatMul" version="opset1">
			<data transpose_a="false" transpose_b="true" />
			<input>
				<port id="0" precision="FP32">
					<dim>-1</dim>
					<dim>-1</dim>
					<dim>768</dim>
				</port>
				<port id="1" precision="FP32">
					<dim>768</dim>
					<dim>768</dim>
				</port>
			</input>
			<output>
				<port id="2" precision="FP32">
					<dim>-1</dim>
					<dim>-1</dim>
					<dim>768</dim>
				</port>
			</output>
		</layer>
		<layer id="362" name="Constant_530466" type="Const" version="opset1">
			<data element_type="f32" shape="1, 1, 768" offset="39496504" size="3072" />
			<output>
				<port id="0" precision="FP32">
					<dim>1</dim>
					<dim>1</dim>
					<dim>768</dim>
				</port>
			</output>
		</layer>
		<layer id="363" name="__module.encoder.layer.2.attention.attn.k/aten::linear/Add" type="Add" version="opset1">
			<data auto_broadcast="numpy" />
			<input>
				<port id="0" precision="FP32">
					<dim>-1</dim>
					<dim>-1</dim>
					<dim>768</dim>
				</port>
				<port id="1" precision="FP32">
					<dim>1</dim>
					<dim>1</dim>
					<dim>768</dim>
				</port>
			</input>
			<output>
				<port id="2" precision="FP32" names="319,x.31">
					<dim>-1</dim>
					<dim>-1</dim>
					<dim>768</dim>
				</port>
			</output>
		</layer>
		<layer id="364" name="__module.encoder.layer.2.attention.attn.k/aten::linear/Add/fq_output_0/input_low" type="Const" version="opset1">
			<data element_type="f32" shape="" offset="39499576" size="4" />
			<output>
				<port id="0" precision="FP32" />
			</output>
		</layer>
		<layer id="365" name="__module.encoder.layer.2.attention.attn.k/aten::linear/Add/fq_output_0/input_high" type="Const" version="opset1">
			<data element_type="f32" shape="" offset="39499580" size="4" />
			<output>
				<port id="0" precision="FP32" />
			</output>
		</layer>
		<layer id="366" name="__module.encoder.layer.2.attention.attn.k/aten::linear/Add/fq_output_0/output_low" type="Const" version="opset1">
			<data element_type="f32" shape="" offset="39499576" size="4" />
			<output>
				<port id="0" precision="FP32" />
			</output>
		</layer>
		<layer id="367" name="__module.encoder.layer.2.attention.attn.k/aten::linear/Add/fq_output_0/output_high" type="Const" version="opset1">
			<data element_type="f32" shape="" offset="39499580" size="4" />
			<output>
				<port id="0" precision="FP32" />
			</output>
		</layer>
		<layer id="368" name="__module.encoder.layer.2.attention.attn.k/aten::linear/Add/fq_output_0" type="FakeQuantize" version="opset1">
			<data levels="256" auto_broadcast="numpy" />
			<input>
				<port id="0" precision="FP32">
					<dim>-1</dim>
					<dim>-1</dim>
					<dim>768</dim>
				</port>
				<port id="1" precision="FP32" />
				<port id="2" precision="FP32" />
				<port id="3" precision="FP32" />
				<port id="4" precision="FP32" />
			</input>
			<output>
				<port id="5" precision="FP32">
					<dim>-1</dim>
					<dim>-1</dim>
					<dim>768</dim>
				</port>
			</output>
		</layer>
		<layer id="369" name="__module.encoder.layer.2.attention.attn/prim::ListConstruct/Concat_1" type="Const" version="opset1">
			<data element_type="i64" shape="4" offset="24568868" size="32" />
			<output>
				<port id="0" precision="I64">
					<dim>4</dim>
				</port>
			</output>
		</layer>
		<layer id="370" name="__module.encoder.layer.2.attention.attn/aten::view/Reshape_1" type="Reshape" version="opset1">
			<data special_zero="true" />
			<input>
				<port id="0" precision="FP32">
					<dim>-1</dim>
					<dim>-1</dim>
					<dim>768</dim>
				</port>
				<port id="1" precision="I64">
					<dim>4</dim>
				</port>
			</input>
			<output>
				<port id="2" precision="FP32" names="332,x.33">
					<dim>-1</dim>
					<dim>-1</dim>
					<dim>12</dim>
					<dim>64</dim>
				</port>
			</output>
		</layer>
		<layer id="371" name="Constant_522159" type="Const" version="opset1">
			<data element_type="i64" shape="4" offset="24568900" size="32" />
			<output>
				<port id="0" precision="I64" names="333">
					<dim>4</dim>
				</port>
			</output>
		</layer>
		<layer id="372" name="__module.encoder.layer.2.attention.attn/aten::permute/Transpose_1" type="Transpose" version="opset1">
			<input>
				<port id="0" precision="FP32">
					<dim>-1</dim>
					<dim>-1</dim>
					<dim>12</dim>
					<dim>64</dim>
				</port>
				<port id="1" precision="I64">
					<dim>4</dim>
				</port>
			</input>
			<output>
				<port id="2" precision="FP32" names="334,k.5">
					<dim>-1</dim>
					<dim>12</dim>
					<dim>-1</dim>
					<dim>64</dim>
				</port>
			</output>
		</layer>
		<layer id="373" name="__module.encoder.layer.2.attention.attn/aten::matmul/MatMul" type="MatMul" version="opset1">
			<data transpose_a="false" transpose_b="true" />
			<input>
				<port id="0" precision="FP32">
					<dim>-1</dim>
					<dim>12</dim>
					<dim>-1</dim>
					<dim>64</dim>
				</port>
				<port id="1" precision="FP32">
					<dim>-1</dim>
					<dim>12</dim>
					<dim>-1</dim>
					<dim>64</dim>
				</port>
			</input>
			<output>
				<port id="2" precision="FP32" names="342,attention_scores.13">
					<dim>-1</dim>
					<dim>12</dim>
					<dim>-1</dim>
					<dim>-1</dim>
				</port>
			</output>
		</layer>
		<layer id="374" name="Constant_530467" type="Const" version="opset1">
			<data element_type="f32" shape="1, 1, 1, 1" offset="25164908" size="4" />
			<output>
				<port id="0" precision="FP32">
					<dim>1</dim>
					<dim>1</dim>
					<dim>1</dim>
					<dim>1</dim>
				</port>
			</output>
		</layer>
		<layer id="375" name="__module.encoder.layer.2.attention.attn/aten::div/Divide" type="Divide" version="opset1">
			<data auto_broadcast="numpy" m_pythondiv="true" />
			<input>
				<port id="0" precision="FP32">
					<dim>-1</dim>
					<dim>12</dim>
					<dim>-1</dim>
					<dim>-1</dim>
				</port>
				<port id="1" precision="FP32">
					<dim>1</dim>
					<dim>1</dim>
					<dim>1</dim>
					<dim>1</dim>
				</port>
			</input>
			<output>
				<port id="2" precision="FP32" names="343_1">
					<dim>-1</dim>
					<dim>12</dim>
					<dim>-1</dim>
					<dim>-1</dim>
				</port>
			</output>
		</layer>
		<layer id="376" name="__module.encoder.layer.2.attention.attn/aten::add_/Add" type="Add" version="opset1">
			<data auto_broadcast="numpy" />
			<input>
				<port id="0" precision="FP32">
					<dim>-1</dim>
					<dim>12</dim>
					<dim>-1</dim>
					<dim>-1</dim>
				</port>
				<port id="1" precision="FP32">
					<dim>-1</dim>
					<dim>12</dim>
					<dim>-1</dim>
					<dim>-1</dim>
				</port>
			</input>
			<output>
				<port id="2" precision="FP32" names="343,attention_scores.15">
					<dim>-1</dim>
					<dim>12</dim>
					<dim>-1</dim>
					<dim>-1</dim>
				</port>
			</output>
		</layer>
		<layer id="377" name="__module.encoder.layer.2.attention.attn/aten::add/Add" type="Add" version="opset1">
			<data auto_broadcast="numpy" />
			<input>
				<port id="0" precision="FP32">
					<dim>-1</dim>
					<dim>12</dim>
					<dim>-1</dim>
					<dim>-1</dim>
				</port>
				<port id="1" precision="FP32">
					<dim>-1</dim>
					<dim>1</dim>
					<dim>1</dim>
					<dim>-1</dim>
				</port>
			</input>
			<output>
				<port id="2" precision="FP32" names="345,input.19">
					<dim>-1</dim>
					<dim>12</dim>
					<dim>-1</dim>
					<dim>-1</dim>
				</port>
			</output>
		</layer>
		<layer id="378" name="__module.encoder.layer.2.attention.attn/aten::softmax/Softmax" type="SoftMax" version="opset8">
			<data axis="-1" />
			<input>
				<port id="0" precision="FP32">
					<dim>-1</dim>
					<dim>12</dim>
					<dim>-1</dim>
					<dim>-1</dim>
				</port>
			</input>
			<output>
				<port id="1" precision="FP32" names="346,input.21">
					<dim>-1</dim>
					<dim>12</dim>
					<dim>-1</dim>
					<dim>-1</dim>
				</port>
			</output>
		</layer>
		<layer id="379" name="Constant_4001814" type="Const" version="opset1">
			<data element_type="i8" shape="768, 768" offset="39499584" size="589824" />
			<output>
				<port id="0" precision="I8">
					<dim>768</dim>
					<dim>768</dim>
				</port>
			</output>
		</layer>
		<layer id="380" name="Convert_4001815" type="Convert" version="opset1">
			<data destination_type="f32" />
			<input>
				<port id="0" precision="I8">
					<dim>768</dim>
					<dim>768</dim>
				</port>
			</input>
			<output>
				<port id="1" precision="FP32">
					<dim>768</dim>
					<dim>768</dim>
				</port>
			</output>
		</layer>
		<layer id="381" name="Constant_4001816" type="Const" version="opset1">
			<data element_type="f32" shape="768, 1" offset="40089408" size="3072" />
			<output>
				<port id="0" precision="FP32">
					<dim>768</dim>
					<dim>1</dim>
				</port>
			</output>
		</layer>
		<layer id="382" name="__module.encoder.layer.2.attention.attn.v/aten::linear/MatMul/fq_weights_1" type="Multiply" version="opset1">
			<data auto_broadcast="numpy" />
			<input>
				<port id="0" precision="FP32">
					<dim>768</dim>
					<dim>768</dim>
				</port>
				<port id="1" precision="FP32">
					<dim>768</dim>
					<dim>1</dim>
				</port>
			</input>
			<output>
				<port id="2" precision="FP32">
					<dim>768</dim>
					<dim>768</dim>
				</port>
			</output>
		</layer>
		<layer id="383" name="__module.encoder.layer.2.attention.attn.v/aten::linear/MatMul" type="MatMul" version="opset1">
			<data transpose_a="false" transpose_b="true" />
			<input>
				<port id="0" precision="FP32">
					<dim>-1</dim>
					<dim>-1</dim>
					<dim>768</dim>
				</port>
				<port id="1" precision="FP32">
					<dim>768</dim>
					<dim>768</dim>
				</port>
			</input>
			<output>
				<port id="2" precision="FP32">
					<dim>-1</dim>
					<dim>-1</dim>
					<dim>768</dim>
				</port>
			</output>
		</layer>
…
		<edge from-layer="852" from-port="1" to-layer="854" to-port="0" />
		<edge from-layer="853" from-port="0" to-layer="854" to-port="1" />
		<edge from-layer="854" from-port="2" to-layer="855" to-port="1" />
		<edge from-layer="855" from-port="2" to-layer="857" to-port="0" />
		<edge from-layer="856" from-port="0" to-layer="857" to-port="1" />
		<edge from-layer="857" from-port="2" to-layer="859" to-port="0" />
		<edge from-layer="858" from-port="0" to-layer="859" to-port="1" />
		<edge from-layer="859" from-port="2" to-layer="861" to-port="0" />
		<edge from-layer="860" from-port="0" to-layer="861" to-port="1" />
		<edge from-layer="861" from-port="2" to-layer="862" to-port="1" />
		<edge from-layer="862" from-port="2" to-layer="864" to-port="0" />
		<edge from-layer="863" from-port="0" to-layer="864" to-port="1" />
		<edge from-layer="864" from-port="2" to-layer="866" to-port="0" />
		<edge from-layer="865" from-port="0" to-layer="866" to-port="1" />
		<edge from-layer="866" from-port="2" to-layer="868" to-port="0" />
		<edge from-layer="867" from-port="0" to-layer="868" to-port="1" />
		<edge from-layer="868" from-port="2" to-layer="873" to-port="0" />
		<edge from-layer="869" from-port="0" to-layer="873" to-port="1" />
		<edge from-layer="870" from-port="0" to-layer="873" to-port="2" />
		<edge from-layer="871" from-port="0" to-layer="873" to-port="3" />
		<edge from-layer="872" from-port="0" to-layer="873" to-port="4" />
		<edge from-layer="873" from-port="5" to-layer="878" to-port="0" />
		<edge from-layer="874" from-port="0" to-layer="875" to-port="0" />
		<edge from-layer="875" from-port="1" to-layer="877" to-port="0" />
		<edge from-layer="876" from-port="0" to-layer="877" to-port="1" />
		<edge from-layer="877" from-port="2" to-layer="878" to-port="1" />
		<edge from-layer="878" from-port="2" to-layer="880" to-port="0" />
		<edge from-layer="879" from-port="0" to-layer="880" to-port="1" />
		<edge from-layer="880" from-port="2" to-layer="881" to-port="0" />
		<edge from-layer="881" from-port="2" to-layer="883" to-port="0" />
		<edge from-layer="882" from-port="0" to-layer="883" to-port="1" />
		<edge from-layer="883" from-port="2" to-layer="885" to-port="0" />
		<edge from-layer="884" from-port="0" to-layer="885" to-port="1" />
		<edge from-layer="885" from-port="2" to-layer="887" to-port="0" />
		<edge from-layer="886" from-port="0" to-layer="887" to-port="1" />
		<edge from-layer="887" from-port="2" to-layer="889" to-port="0" />
		<edge from-layer="887" from-port="2" to-layer="917" to-port="1" />
		<edge from-layer="888" from-port="0" to-layer="889" to-port="1" />
		<edge from-layer="889" from-port="2" to-layer="894" to-port="0" />
		<edge from-layer="890" from-port="0" to-layer="894" to-port="1" />
		<edge from-layer="891" from-port="0" to-layer="894" to-port="2" />
		<edge from-layer="892" from-port="0" to-layer="894" to-port="3" />
		<edge from-layer="893" from-port="0" to-layer="894" to-port="4" />
		<edge from-layer="894" from-port="5" to-layer="899" to-port="0" />
		<edge from-layer="895" from-port="0" to-layer="896" to-port="0" />
		<edge from-layer="896" from-port="1" to-layer="898" to-port="0" />
		<edge from-layer="897" from-port="0" to-layer="898" to-port="1" />
		<edge from-layer="898" from-port="2" to-layer="899" to-port="1" />
		<edge from-layer="899" from-port="2" to-layer="901" to-port="0" />
		<edge from-layer="900" from-port="0" to-layer="901" to-port="1" />
		<edge from-layer="901" from-port="2" to-layer="902" to-port="0" />
		<edge from-layer="902" from-port="1" to-layer="904" to-port="0" />
		<edge from-layer="903" from-port="0" to-layer="904" to-port="1" />
		<edge from-layer="904" from-port="2" to-layer="909" to-port="0" />
		<edge from-layer="905" from-port="0" to-layer="909" to-port="1" />
		<edge from-layer="906" from-port="0" to-layer="909" to-port="2" />
		<edge from-layer="907" from-port="0" to-layer="909" to-port="3" />
		<edge from-layer="908" from-port="0" to-layer="909" to-port="4" />
		<edge from-layer="909" from-port="5" to-layer="914" to-port="0" />
		<edge from-layer="910" from-port="0" to-layer="911" to-port="0" />
		<edge from-layer="911" from-port="1" to-layer="913" to-port="0" />
		<edge from-layer="912" from-port="0" to-layer="913" to-port="1" />
		<edge from-layer="913" from-port="2" to-layer="914" to-port="1" />
		<edge from-layer="914" from-port="2" to-layer="916" to-port="0" />
		<edge from-layer="915" from-port="0" to-layer="916" to-port="1" />
		<edge from-layer="916" from-port="2" to-layer="917" to-port="0" />
		<edge from-layer="917" from-port="2" to-layer="919" to-port="0" />
		<edge from-layer="918" from-port="0" to-layer="919" to-port="1" />
		<edge from-layer="919" from-port="2" to-layer="921" to-port="0" />
		<edge from-layer="920" from-port="0" to-layer="921" to-port="1" />
		<edge from-layer="921" from-port="2" to-layer="923" to-port="0" />
		<edge from-layer="922" from-port="0" to-layer="923" to-port="1" />
		<edge from-layer="923" from-port="2" to-layer="925" to-port="0" />
		<edge from-layer="923" from-port="2" to-layer="999" to-port="1" />
		<edge from-layer="924" from-port="0" to-layer="925" to-port="1" />
		<edge from-layer="925" from-port="2" to-layer="930" to-port="0" />
		<edge from-layer="926" from-port="0" to-layer="930" to-port="1" />
		<edge from-layer="927" from-port="0" to-layer="930" to-port="2" />
		<edge from-layer="928" from-port="0" to-layer="930" to-port="3" />
		<edge from-layer="929" from-port="0" to-layer="930" to-port="4" />
		<edge from-layer="930" from-port="5" to-layer="973" to-port="0" />
		<edge from-layer="930" from-port="5" to-layer="951" to-port="0" />
		<edge from-layer="930" from-port="5" to-layer="935" to-port="0" />
		<edge from-layer="931" from-port="0" to-layer="932" to-port="0" />
		<edge from-layer="932" from-port="1" to-layer="934" to-port="0" />
		<edge from-layer="933" from-port="0" to-layer="934" to-port="1" />
		<edge from-layer="934" from-port="2" to-layer="935" to-port="1" />
		<edge from-layer="935" from-port="2" to-layer="937" to-port="0" />
		<edge from-layer="936" from-port="0" to-layer="937" to-port="1" />
		<edge from-layer="937" from-port="2" to-layer="942" to-port="0" />
		<edge from-layer="938" from-port="0" to-layer="942" to-port="1" />
		<edge from-layer="939" from-port="0" to-layer="942" to-port="2" />
		<edge from-layer="940" from-port="0" to-layer="942" to-port="3" />
		<edge from-layer="941" from-port="0" to-layer="942" to-port="4" />
		<edge from-layer="942" from-port="5" to-layer="944" to-port="0" />
		<edge from-layer="943" from-port="0" to-layer="944" to-port="1" />
		<edge from-layer="944" from-port="2" to-layer="946" to-port="0" />
		<edge from-layer="945" from-port="0" to-layer="946" to-port="1" />
		<edge from-layer="946" from-port="2" to-layer="963" to-port="0" />
		<edge from-layer="947" from-port="0" to-layer="948" to-port="0" />
		<edge from-layer="948" from-port="1" to-layer="950" to-port="0" />
		<edge from-layer="949" from-port="0" to-layer="950" to-port="1" />
		<edge from-layer="950" from-port="2" to-layer="951" to-port="1" />
		<edge from-layer="951" from-port="2" to-layer="953" to-port="0" />
		<edge from-layer="952" from-port="0" to-layer="953" to-port="1" />
		<edge from-layer="953" from-port="2" to-layer="958" to-port="0" />
		<edge from-layer="954" from-port="0" to-layer="958" to-port="1" />
		<edge from-layer="955" from-port="0" to-layer="958" to-port="2" />
		<edge from-layer="956" from-port="0" to-layer="958" to-port="3" />
		<edge from-layer="957" from-port="0" to-layer="958" to-port="4" />
		<edge from-layer="958" from-port="5" to-layer="960" to-port="0" />
		<edge from-layer="959" from-port="0" to-layer="960" to-port="1" />
		<edge from-layer="960" from-port="2" to-layer="962" to-port="0" />
		<edge from-layer="961" from-port="0" to-layer="962" to-port="1" />
		<edge from-layer="962" from-port="2" to-layer="963" to-port="1" />
		<edge from-layer="963" from-port="2" to-layer="965" to-port="0" />
		<edge from-layer="964" from-port="0" to-layer="965" to-port="1" />
		<edge from-layer="965" from-port="2" to-layer="966" to-port="0" />
		<edge from-layer="966" from-port="2" to-layer="967" to-port="0" />
		<edge from-layer="967" from-port="2" to-layer="968" to-port="0" />
		<edge from-layer="968" from-port="1" to-layer="980" to-port="0" />
		<edge from-layer="969" from-port="0" to-layer="970" to-port="0" />
		<edge from-layer="970" from-port="1" to-layer="972" to-port="0" />
		<edge from-layer="971" from-port="0" to-layer="972" to-port="1" />
		<edge from-layer="972" from-port="2" to-layer="973" to-port="1" />
		<edge from-layer="973" from-port="2" to-layer="975" to-port="0" />
		<edge from-layer="974" from-port="0" to-layer="975" to-port="1" />
		<edge from-layer="975" from-port="2" to-layer="977" to-port="0" />
		<edge from-layer="976" from-port="0" to-layer="977" to-port="1" />
		<edge from-layer="977" from-port="2" to-layer="979" to-port="0" />
		<edge from-layer="978" from-port="0" to-layer="979" to-port="1" />
		<edge from-layer="979" from-port="2" to-layer="980" to-port="1" />
		<edge from-layer="980" from-port="2" to-layer="982" to-port="0" />
		<edge from-layer="981" from-port="0" to-layer="982" to-port="1" />
		<edge from-layer="982" from-port="2" to-layer="984" to-port="0" />
		<edge from-layer="983" from-port="0" to-layer="984" to-port="1" />
		<edge from-layer="984" from-port="2" to-layer="986" to-port="0" />
		<edge from-layer="985" from-port="0" to-layer="986" to-port="1" />
		<edge from-layer="986" from-port="2" to-layer="991" to-port="0" />
		<edge from-layer="987" from-port="0" to-layer="991" to-port="1" />
		<edge from-layer="988" from-port="0" to-layer="991" to-port="2" />
		<edge from-layer="989" from-port="0" to-layer="991" to-port="3" />
		<edge from-layer="990" from-port="0" to-layer="991" to-port="4" />
		<edge from-layer="991" from-port="5" to-layer="996" to-port="0" />
		<edge from-layer="992" from-port="0" to-layer="993" to-port="0" />
		<edge from-layer="993" from-port="1" to-layer="995" to-port="0" />
		<edge from-layer="994" from-port="0" to-layer="995" to-port="1" />
		<edge from-layer="995" from-port="2" to-layer="996" to-port="1" />
		<edge from-layer="996" from-port="2" to-layer="998" to-port="0" />
		<edge from-layer="997" from-port="0" to-layer="998" to-port="1" />
		<edge from-layer="998" from-port="2" to-layer="999" to-port="0" />
		<edge from-layer="999" from-port="2" to-layer="1001" to-port="0" />
		<edge from-layer="1000" from-port="0" to-layer="1001" to-port="1" />
		<edge from-layer="1001" from-port="2" to-layer="1003" to-port="0" />
		<edge from-layer="1002" from-port="0" to-layer="1003" to-port="1" />
		<edge from-layer="1003" from-port="2" to-layer="1005" to-port="0" />
		<edge from-layer="1004" from-port="0" to-layer="1005" to-port="1" />
		<edge from-layer="1005" from-port="2" to-layer="1007" to-port="0" />
		<edge from-layer="1005" from-port="2" to-layer="1035" to-port="1" />
		<edge from-layer="1006" from-port="0" to-layer="1007" to-port="1" />
		<edge from-layer="1007" from-port="2" to-layer="1012" to-port="0" />
		<edge from-layer="1008" from-port="0" to-layer="1012" to-port="1" />
		<edge from-layer="1009" from-port="0" to-layer="1012" to-port="2" />
		<edge from-layer="1010" from-port="0" to-layer="1012" to-port="3" />
		<edge from-layer="1011" from-port="0" to-layer="1012" to-port="4" />
		<edge from-layer="1012" from-port="5" to-layer="1017" to-port="0" />
		<edge from-layer="1013" from-port="0" to-layer="1014" to-port="0" />
		<edge from-layer="1014" from-port="1" to-layer="1016" to-port="0" />
		<edge from-layer="1015" from-port="0" to-layer="1016" to-port="1" />
		<edge from-layer="1016" from-port="2" to-layer="1017" to-port="1" />
		<edge from-layer="1017" from-port="2" to-layer="1019" to-port="0" />
		<edge from-layer="1018" from-port="0" to-layer="1019" to-port="1" />
		<edge from-layer="1019" from-port="2" to-layer="1020" to-port="0" />
		<edge from-layer="1020" from-port="1" to-layer="1022" to-port="0" />
		<edge from-layer="1021" from-port="0" to-layer="1022" to-port="1" />
		<edge from-layer="1022" from-port="2" to-layer="1027" to-port="0" />
		<edge from-layer="1023" from-port="0" to-layer="1027" to-port="1" />
		<edge from-layer="1024" from-port="0" to-layer="1027" to-port="2" />
		<edge from-layer="1025" from-port="0" to-layer="1027" to-port="3" />
		<edge from-layer="1026" from-port="0" to-layer="1027" to-port="4" />
		<edge from-layer="1027" from-port="5" to-layer="1032" to-port="0" />
		<edge from-layer="1028" from-port="0" to-layer="1029" to-port="0" />
		<edge from-layer="1029" from-port="1" to-layer="1031" to-port="0" />
		<edge from-layer="1030" from-port="0" to-layer="1031" to-port="1" />
		<edge from-layer="1031" from-port="2" to-layer="1032" to-port="1" />
		<edge from-layer="1032" from-port="2" to-layer="1034" to-port="0" />
		<edge from-layer="1033" from-port="0" to-layer="1034" to-port="1" />
		<edge from-layer="1034" from-port="2" to-layer="1035" to-port="0" />
		<edge from-layer="1035" from-port="2" to-layer="1037" to-port="0" />
		<edge from-layer="1036" from-port="0" to-layer="1037" to-port="1" />
		<edge from-layer="1037" from-port="2" to-layer="1039" to-port="0" />
		<edge from-layer="1038" from-port="0" to-layer="1039" to-port="1" />
		<edge from-layer="1039" from-port="2" to-layer="1041" to-port="0" />
		<edge from-layer="1040" from-port="0" to-layer="1041" to-port="1" />
		<edge from-layer="1041" from-port="2" to-layer="1043" to-port="0" />
		<edge from-layer="1041" from-port="2" to-layer="1117" to-port="1" />
		<edge from-layer="1042" from-port="0" to-layer="1043" to-port="1" />
		<edge from-layer="1043" from-port="2" to-layer="1048" to-port="0" />
		<edge from-layer="1044" from-port="0" to-layer="1048" to-port="1" />
		<edge from-layer="1045" from-port="0" to-layer="1048" to-port="2" />
		<edge from-layer="1046" from-port="0" to-layer="1048" to-port="3" />
		<edge from-layer="1047" from-port="0" to-layer="1048" to-port="4" />
		<edge from-layer="1048" from-port="5" to-layer="1069" to-port="0" />
		<edge from-layer="1048" from-port="5" to-layer="1091" to-port="0" />
		<edge from-layer="1048" from-port="5" to-layer="1053" to-port="0" />
		<edge from-layer="1049" from-port="0" to-layer="1050" to-port="0" />
		<edge from-layer="1050" from-port="1" to-layer="1052" to-port="0" />
		<edge from-layer="1051" from-port="0" to-layer="1052" to-port="1" />
		<edge from-layer="1052" from-port="2" to-layer="1053" to-port="1" />
		<edge from-layer="1053" from-port="2" to-layer="1055" to-port="0" />
		<edge from-layer="1054" from-port="0" to-layer="1055" to-port="1" />
		<edge from-layer="1055" from-port="2" to-layer="1060" to-port="0" />
		<edge from-layer="1056" from-port="0" to-layer="1060" to-port="1" />
		<edge from-layer="1057" from-port="0" to-layer="1060" to-port="2" />
		<edge from-layer="1058" from-port="0" to-layer="1060" to-port="3" />
		<edge from-layer="1059" from-port="0" to-layer="1060" to-port="4" />
		<edge from-layer="1060" from-port="5" to-layer="1062" to-port="0" />
		<edge from-layer="1061" from-port="0" to-layer="1062" to-port="1" />
		<edge from-layer="1062" from-port="2" to-layer="1064" to-port="0" />
		<edge from-layer="1063" from-port="0" to-layer="1064" to-port="1" />
		<edge from-layer="1064" from-port="2" to-layer="1081" to-port="0" />
		<edge from-layer="1065" from-port="0" to-layer="1066" to-port="0" />
		<edge from-layer="1066" from-port="1" to-layer="1068" to-port="0" />
		<edge from-layer="1067" from-port="0" to-layer="1068" to-port="1" />
		<edge from-layer="1068" from-port="2" to-layer="1069" to-port="1" />
		<edge from-layer="1069" from-port="2" to-layer="1071" to-port="0" />
		<edge from-layer="1070" from-port="0" to-layer="1071" to-port="1" />
		<edge from-layer="1071" from-port="2" to-layer="1076" to-port="0" />
		<edge from-layer="1072" from-port="0" to-layer="1076" to-port="1" />
		<edge from-layer="1073" from-port="0" to-layer="1076" to-port="2" />
		<edge from-layer="1074" from-port="0" to-layer="1076" to-port="3" />
		<edge from-layer="1075" from-port="0" to-layer="1076" to-port="4" />
		<edge from-layer="1076" from-port="5" to-layer="1078" to-port="0" />
		<edge from-layer="1077" from-port="0" to-layer="1078" to-port="1" />
		<edge from-layer="1078" from-port="2" to-layer="1080" to-port="0" />
		<edge from-layer="1079" from-port="0" to-layer="1080" to-port="1" />
		<edge from-layer="1080" from-port="2" to-layer="1081" to-port="1" />
		<edge from-layer="1081" from-port="2" to-layer="1083" to-port="0" />
		<edge from-layer="1082" from-port="0" to-layer="1083" to-port="1" />
		<edge from-layer="1083" from-port="2" to-layer="1084" to-port="0" />
		<edge from-layer="1084" from-port="2" to-layer="1085" to-port="0" />
		<edge from-layer="1085" from-port="2" to-layer="1086" to-port="0" />
		<edge from-layer="1086" from-port="1" to-layer="1098" to-port="0" />
		<edge from-layer="1087" from-port="0" to-layer="1088" to-port="0" />
		<edge from-layer="1088" from-port="1" to-layer="1090" to-port="0" />
		<edge from-layer="1089" from-port="0" to-layer="1090" to-port="1" />
		<edge from-layer="1090" from-port="2" to-layer="1091" to-port="1" />
		<edge from-layer="1091" from-port="2" to-layer="1093" to-port="0" />
		<edge from-layer="1092" from-port="0" to-layer="1093" to-port="1" />
		<edge from-layer="1093" from-port="2" to-layer="1095" to-port="0" />
		<edge from-layer="1094" from-port="0" to-layer="1095" to-port="1" />
		<edge from-layer="1095" from-port="2" to-layer="1097" to-port="0" />
		<edge from-layer="1096" from-port="0" to-layer="1097" to-port="1" />
		<edge from-layer="1097" from-port="2" to-layer="1098" to-port="1" />
		<edge from-layer="1098" from-port="2" to-layer="1100" to-port="0" />
		<edge from-layer="1099" from-port="0" to-layer="1100" to-port="1" />
		<edge from-layer="1100" from-port="2" to-layer="1102" to-port="0" />
		<edge from-layer="1101" from-port="0" to-layer="1102" to-port="1" />
		<edge from-layer="1102" from-port="2" to-layer="1104" to-port="0" />
		<edge from-layer="1103" from-port="0" to-layer="1104" to-port="1" />
		<edge from-layer="1104" from-port="2" to-layer="1109" to-port="0" />
		<edge from-layer="1105" from-port="0" to-layer="1109" to-port="1" />
		<edge from-layer="1106" from-port="0" to-layer="1109" to-port="2" />
		<edge from-layer="1107" from-port="0" to-layer="1109" to-port="3" />
		<edge from-layer="1108" from-port="0" to-layer="1109" to-port="4" />
		<edge from-layer="1109" from-port="5" to-layer="1114" to-port="0" />
		<edge from-layer="1110" from-port="0" to-layer="1111" to-port="0" />
		<edge from-layer="1111" from-port="1" to-layer="1113" to-port="0" />
		<edge from-layer="1112" from-port="0" to-layer="1113" to-port="1" />
		<edge from-layer="1113" from-port="2" to-layer="1114" to-port="1" />
		<edge from-layer="1114" from-port="2" to-layer="1116" to-port="0" />
		<edge from-layer="1115" from-port="0" to-layer="1116" to-port="1" />
		<edge from-layer="1116" from-port="2" to-layer="1117" to-port="0" />
		<edge from-layer="1117" from-port="2" to-layer="1119" to-port="0" />
		<edge from-layer="1118" from-port="0" to-layer="1119" to-port="1" />
		<edge from-layer="1119" from-port="2" to-layer="1121" to-port="0" />
		<edge from-layer="1120" from-port="0" to-layer="1121" to-port="1" />
		<edge from-layer="1121" from-port="2" to-layer="1123" to-port="0" />
		<edge from-layer="1122" from-port="0" to-layer="1123" to-port="1" />
		<edge from-layer="1123" from-port="2" to-layer="1125" to-port="0" />
		<edge from-layer="1123" from-port="2" to-layer="1153" to-port="1" />
		<edge from-layer="1124" from-port="0" to-layer="1125" to-port="1" />
		<edge from-layer="1125" from-port="2" to-layer="1130" to-port="0" />
		<edge from-layer="1126" from-port="0" to-layer="1130" to-port="1" />
		<edge from-layer="1127" from-port="0" to-layer="1130" to-port="2" />
		<edge from-layer="1128" from-port="0" to-layer="1130" to-port="3" />
		<edge from-layer="1129" from-port="0" to-layer="1130" to-port="4" />
		<edge from-layer="1130" from-port="5" to-layer="1135" to-port="0" />
		<edge from-layer="1131" from-port="0" to-layer="1132" to-port="0" />
		<edge from-layer="1132" from-port="1" to-layer="1134" to-port="0" />
		<edge from-layer="1133" from-port="0" to-layer="1134" to-port="1" />
		<edge from-layer="1134" from-port="2" to-layer="1135" to-port="1" />
		<edge from-layer="1135" from-port="2" to-layer="1137" to-port="0" />
		<edge from-layer="1136" from-port="0" to-layer="1137" to-port="1" />
		<edge from-layer="1137" from-port="2" to-layer="1138" to-port="0" />
		<edge from-layer="1138" from-port="1" to-layer="1140" to-port="0" />
		<edge from-layer="1139" from-port="0" to-layer="1140" to-port="1" />
		<edge from-layer="1140" from-port="2" to-layer="1145" to-port="0" />
		<edge from-layer="1141" from-port="0" to-layer="1145" to-port="1" />
		<edge from-layer="1142" from-port="0" to-layer="1145" to-port="2" />
		<edge from-layer="1143" from-port="0" to-layer="1145" to-port="3" />
		<edge from-layer="1144" from-port="0" to-layer="1145" to-port="4" />
		<edge from-layer="1145" from-port="5" to-layer="1150" to-port="0" />
		<edge from-layer="1146" from-port="0" to-layer="1147" to-port="0" />
		<edge from-layer="1147" from-port="1" to-layer="1149" to-port="0" />
		<edge from-layer="1148" from-port="0" to-layer="1149" to-port="1" />
		<edge from-layer="1149" from-port="2" to-layer="1150" to-port="1" />
		<edge from-layer="1150" from-port="2" to-layer="1152" to-port="0" />
		<edge from-layer="1151" from-port="0" to-layer="1152" to-port="1" />
		<edge from-layer="1152" from-port="2" to-layer="1153" to-port="0" />
		<edge from-layer="1153" from-port="2" to-layer="1155" to-port="0" />
		<edge from-layer="1154" from-port="0" to-layer="1155" to-port="1" />
		<edge from-layer="1155" from-port="2" to-layer="1157" to-port="0" />
		<edge from-layer="1156" from-port="0" to-layer="1157" to-port="1" />
		<edge from-layer="1157" from-port="2" to-layer="1159" to-port="0" />
		<edge from-layer="1158" from-port="0" to-layer="1159" to-port="1" />
		<edge from-layer="1159" from-port="2" to-layer="1161" to-port="0" />
		<edge from-layer="1159" from-port="2" to-layer="1235" to-port="1" />
		<edge from-layer="1160" from-port="0" to-layer="1161" to-port="1" />
		<edge from-layer="1161" from-port="2" to-layer="1166" to-port="0" />
		<edge from-layer="1162" from-port="0" to-layer="1166" to-port="1" />
		<edge from-layer="1163" from-port="0" to-layer="1166" to-port="2" />
		<edge from-layer="1164" from-port="0" to-layer="1166" to-port="3" />
		<edge from-layer="1165" from-port="0" to-layer="1166" to-port="4" />
		<edge from-layer="1166" from-port="5" to-layer="1171" to-port="0" />
		<edge from-layer="1166" from-port="5" to-layer="1187" to-port="0" />
		<edge from-layer="1166" from-port="5" to-layer="1209" to-port="0" />
		<edge from-layer="1167" from-port="0" to-layer="1168" to-port="0" />
		<edge from-layer="1168" from-port="1" to-layer="1170" to-port="0" />
		<edge from-layer="1169" from-port="0" to-layer="1170" to-port="1" />
		<edge from-layer="1170" from-port="2" to-layer="1171" to-port="1" />
		<edge from-layer="1171" from-port="2" to-layer="1173" to-port="0" />
		<edge from-layer="1172" from-port="0" to-layer="1173" to-port="1" />
		<edge from-layer="1173" from-port="2" to-layer="1178" to-port="0" />
		<edge from-layer="1174" from-port="0" to-layer="1178" to-port="1" />
		<edge from-layer="1175" from-port="0" to-layer="1178" to-port="2" />
		<edge from-layer="1176" from-port="0" to-layer="1178" to-port="3" />
		<edge from-layer="1177" from-port="0" to-layer="1178" to-port="4" />
		<edge from-layer="1178" from-port="5" to-layer="1180" to-port="0" />
		<edge from-layer="1179" from-port="0" to-layer="1180" to-port="1" />
		<edge from-layer="1180" from-port="2" to-layer="1182" to-port="0" />
		<edge from-layer="1181" from-port="0" to-layer="1182" to-port="1" />
		<edge from-layer="1182" from-port="2" to-layer="1199" to-port="0" />
		<edge from-layer="1183" from-port="0" to-layer="1184" to-port="0" />
		<edge from-layer="1184" from-port="1" to-layer="1186" to-port="0" />
		<edge from-layer="1185" from-port="0" to-layer="1186" to-port="1" />
		<edge from-layer="1186" from-port="2" to-layer="1187" to-port="1" />
		<edge from-layer="1187" from-port="2" to-layer="1189" to-port="0" />
		<edge from-layer="1188" from-port="0" to-layer="1189" to-port="1" />
		<edge from-layer="1189" from-port="2" to-layer="1194" to-port="0" />
		<edge from-layer="1190" from-port="0" to-layer="1194" to-port="1" />
		<edge from-layer="1191" from-port="0" to-layer="1194" to-port="2" />
		<edge from-layer="1192" from-port="0" to-layer="1194" to-port="3" />
		<edge from-layer="1193" from-port="0" to-layer="1194" to-port="4" />
		<edge from-layer="1194" from-port="5" to-layer="1196" to-port="0" />
		<edge from-layer="1195" from-port="0" to-layer="1196" to-port="1" />
		<edge from-layer="1196" from-port="2" to-layer="1198" to-port="0" />
		<edge from-layer="1197" from-port="0" to-layer="1198" to-port="1" />
		<edge from-layer="1198" from-port="2" to-layer="1199" to-port="1" />
		<edge from-layer="1199" from-port="2" to-layer="1201" to-port="0" />
		<edge from-layer="1200" from-port="0" to-layer="1201" to-port="1" />
		<edge from-layer="1201" from-port="2" to-layer="1202" to-port="0" />
		<edge from-layer="1202" from-port="2" to-layer="1203" to-port="0" />
		<edge from-layer="1203" from-port="2" to-layer="1204" to-port="0" />
		<edge from-layer="1204" from-port="1" to-layer="1216" to-port="0" />
		<edge from-layer="1205" from-port="0" to-layer="1206" to-port="0" />
		<edge from-layer="1206" from-port="1" to-layer="1208" to-port="0" />
		<edge from-layer="1207" from-port="0" to-layer="1208" to-port="1" />
		<edge from-layer="1208" from-port="2" to-layer="1209" to-port="1" />
		<edge from-layer="1209" from-port="2" to-layer="1211" to-port="0" />
		<edge from-layer="1210" from-port="0" to-layer="1211" to-port="1" />
		<edge from-layer="1211" from-port="2" to-layer="1213" to-port="0" />
		<edge from-layer="1212" from-port="0" to-layer="1213" to-port="1" />
		<edge from-layer="1213" from-port="2" to-layer="1215" to-port="0" />
		<edge from-layer="1214" from-port="0" to-layer="1215" to-port="1" />
		<edge from-layer="1215" from-port="2" to-layer="1216" to-port="1" />
		<edge from-layer="1216" from-port="2" to-layer="1218" to-port="0" />
		<edge from-layer="1217" from-port="0" to-layer="1218" to-port="1" />
		<edge from-layer="1218" from-port="2" to-layer="1220" to-port="0" />
		<edge from-layer="1219" from-port="0" to-layer="1220" to-port="1" />
		<edge from-layer="1220" from-port="2" to-layer="1222" to-port="0" />
		<edge from-layer="1221" from-port="0" to-layer="1222" to-port="1" />
		<edge from-layer="1222" from-port="2" to-layer="1227" to-port="0" />
		<edge from-layer="1223" from-port="0" to-layer="1227" to-port="1" />
		<edge from-layer="1224" from-port="0" to-layer="1227" to-port="2" />
		<edge from-layer="1225" from-port="0" to-layer="1227" to-port="3" />
		<edge from-layer="1226" from-port="0" to-layer="1227" to-port="4" />
		<edge from-layer="1227" from-port="5" to-layer="1232" to-port="0" />
		<edge from-layer="1228" from-port="0" to-layer="1229" to-port="0" />
		<edge from-layer="1229" from-port="1" to-layer="1231" to-port="0" />
		<edge from-layer="1230" from-port="0" to-layer="1231" to-port="1" />
		<edge from-layer="1231" from-port="2" to-layer="1232" to-port="1" />
		<edge from-layer="1232" from-port="2" to-layer="1234" to-port="0" />
		<edge from-layer="1233" from-port="0" to-layer="1234" to-port="1" />
		<edge from-layer="1234" from-port="2" to-layer="1235" to-port="0" />
		<edge from-layer="1235" from-port="2" to-layer="1237" to-port="0" />
		<edge from-layer="1236" from-port="0" to-layer="1237" to-port="1" />
		<edge from-layer="1237" from-port="2" to-layer="1239" to-port="0" />
		<edge from-layer="1238" from-port="0" to-layer="1239" to-port="1" />
		<edge from-layer="1239" from-port="2" to-layer="1241" to-port="0" />
		<edge from-layer="1240" from-port="0" to-layer="1241" to-port="1" />
		<edge from-layer="1241" from-port="2" to-layer="1243" to-port="0" />
		<edge from-layer="1241" from-port="2" to-layer="1271" to-port="1" />
		<edge from-layer="1242" from-port="0" to-layer="1243" to-port="1" />
		<edge from-layer="1243" from-port="2" to-layer="1248" to-port="0" />
		<edge from-layer="1244" from-port="0" to-layer="1248" to-port="1" />
		<edge from-layer="1245" from-port="0" to-layer="1248" to-port="2" />
		<edge from-layer="1246" from-port="0" to-layer="1248" to-port="3" />
		<edge from-layer="1247" from-port="0" to-layer="1248" to-port="4" />
		<edge from-layer="1248" from-port="5" to-layer="1253" to-port="0" />
		<edge from-layer="1249" from-port="0" to-layer="1250" to-port="0" />
		<edge from-layer="1250" from-port="1" to-layer="1252" to-port="0" />
		<edge from-layer="1251" from-port="0" to-layer="1252" to-port="1" />
		<edge from-layer="1252" from-port="2" to-layer="1253" to-port="1" />
		<edge from-layer="1253" from-port="2" to-layer="1255" to-port="0" />
		<edge from-layer="1254" from-port="0" to-layer="1255" to-port="1" />
		<edge from-layer="1255" from-port="2" to-layer="1256" to-port="0" />
		<edge from-layer="1256" from-port="1" to-layer="1258" to-port="0" />
		<edge from-layer="1257" from-port="0" to-layer="1258" to-port="1" />
		<edge from-layer="1258" from-port="2" to-layer="1263" to-port="0" />
		<edge from-layer="1259" from-port="0" to-layer="1263" to-port="1" />
		<edge from-layer="1260" from-port="0" to-layer="1263" to-port="2" />
		<edge from-layer="1261" from-port="0" to-layer="1263" to-port="3" />
		<edge from-layer="1262" from-port="0" to-layer="1263" to-port="4" />
		<edge from-layer="1263" from-port="5" to-layer="1268" to-port="0" />
		<edge from-layer="1264" from-port="0" to-layer="1265" to-port="0" />
		<edge from-layer="1265" from-port="1" to-layer="1267" to-port="0" />
		<edge from-layer="1266" from-port="0" to-layer="1267" to-port="1" />
		<edge from-layer="1267" from-port="2" to-layer="1268" to-port="1" />
		<edge from-layer="1268" from-port="2" to-layer="1270" to-port="0" />
		<edge from-layer="1269" from-port="0" to-layer="1270" to-port="1" />
		<edge from-layer="1270" from-port="2" to-layer="1271" to-port="0" />
		<edge from-layer="1271" from-port="2" to-layer="1273" to-port="0" />
		<edge from-layer="1272" from-port="0" to-layer="1273" to-port="1" />
		<edge from-layer="1273" from-port="2" to-layer="1275" to-port="0" />
		<edge from-layer="1274" from-port="0" to-layer="1275" to-port="1" />
		<edge from-layer="1275" from-port="2" to-layer="1277" to-port="0" />
		<edge from-layer="1276" from-port="0" to-layer="1277" to-port="1" />
		<edge from-layer="1277" from-port="2" to-layer="1279" to-port="0" />
		<edge from-layer="1277" from-port="2" to-layer="1353" to-port="1" />
		<edge from-layer="1278" from-port="0" to-layer="1279" to-port="1" />
		<edge from-layer="1279" from-port="2" to-layer="1284" to-port="0" />
		<edge from-layer="1280" from-port="0" to-layer="1284" to-port="1" />
		<edge from-layer="1281" from-port="0" to-layer="1284" to-port="2" />
		<edge from-layer="1282" from-port="0" to-layer="1284" to-port="3" />
		<edge from-layer="1283" from-port="0" to-layer="1284" to-port="4" />
		<edge from-layer="1284" from-port="5" to-layer="1305" to-port="0" />
		<edge from-layer="1284" from-port="5" to-layer="1327" to-port="0" />
		<edge from-layer="1284" from-port="5" to-layer="1289" to-port="0" />
		<edge from-layer="1285" from-port="0" to-layer="1286" to-port="0" />
		<edge from-layer="1286" from-port="1" to-layer="1288" to-port="0" />
		<edge from-layer="1287" from-port="0" to-layer="1288" to-port="1" />
		<edge from-layer="1288" from-port="2" to-layer="1289" to-port="1" />
		<edge from-layer="1289" from-port="2" to-layer="1291" to-port="0" />
		<edge from-layer="1290" from-port="0" to-layer="1291" to-port="1" />
		<edge from-layer="1291" from-port="2" to-layer="1296" to-port="0" />
		<edge from-layer="1292" from-port="0" to-layer="1296" to-port="1" />
		<edge from-layer="1293" from-port="0" to-layer="1296" to-port="2" />
		<edge from-layer="1294" from-port="0" to-layer="1296" to-port="3" />
		<edge from-layer="1295" from-port="0" to-layer="1296" to-port="4" />
		<edge from-layer="1296" from-port="5" to-layer="1298" to-port="0" />
		<edge from-layer="1297" from-port="0" to-layer="1298" to-port="1" />
		<edge from-layer="1298" from-port="2" to-layer="1300" to-port="0" />
		<edge from-layer="1299" from-port="0" to-layer="1300" to-port="1" />
		<edge from-layer="1300" from-port="2" to-layer="1317" to-port="0" />
		<edge from-layer="1301" from-port="0" to-layer="1302" to-port="0" />
		<edge from-layer="1302" from-port="1" to-layer="1304" to-port="0" />
		<edge from-layer="1303" from-port="0" to-layer="1304" to-port="1" />
		<edge from-layer="1304" from-port="2" to-layer="1305" to-port="1" />
		<edge from-layer="1305" from-port="2" to-layer="1307" to-port="0" />
		<edge from-layer="1306" from-port="0" to-layer="1307" to-port="1" />
		<edge from-layer="1307" from-port="2" to-layer="1312" to-port="0" />
		<edge from-layer="1308" from-port="0" to-layer="1312" to-port="1" />
		<edge from-layer="1309" from-port="0" to-layer="1312" to-port="2" />
		<edge from-layer="1310" from-port="0" to-layer="1312" to-port="3" />
		<edge from-layer="1311" from-port="0" to-layer="1312" to-port="4" />
		<edge from-layer="1312" from-port="5" to-layer="1314" to-port="0" />
		<edge from-layer="1313" from-port="0" to-layer="1314" to-port="1" />
		<edge from-layer="1314" from-port="2" to-layer="1316" to-port="0" />
		<edge from-layer="1315" from-port="0" to-layer="1316" to-port="1" />
		<edge from-layer="1316" from-port="2" to-layer="1317" to-port="1" />
		<edge from-layer="1317" from-port="2" to-layer="1319" to-port="0" />
		<edge from-layer="1318" from-port="0" to-layer="1319" to-port="1" />
		<edge from-layer="1319" from-port="2" to-layer="1320" to-port="0" />
		<edge from-layer="1320" from-port="2" to-layer="1321" to-port="0" />
		<edge from-layer="1321" from-port="2" to-layer="1322" to-port="0" />
		<edge from-layer="1322" from-port="1" to-layer="1334" to-port="0" />
		<edge from-layer="1323" from-port="0" to-layer="1324" to-port="0" />
		<edge from-layer="1324" from-port="1" to-layer="1326" to-port="0" />
		<edge from-layer="1325" from-port="0" to-layer="1326" to-port="1" />
		<edge from-layer="1326" from-port="2" to-layer="1327" to-port="1" />
		<edge from-layer="1327" from-port="2" to-layer="1329" to-port="0" />
		<edge from-layer="1328" from-port="0" to-layer="1329" to-port="1" />
		<edge from-layer="1329" from-port="2" to-layer="1331" to-port="0" />
		<edge from-layer="1330" from-port="0" to-layer="1331" to-port="1" />
		<edge from-layer="1331" from-port="2" to-layer="1333" to-port="0" />
		<edge from-layer="1332" from-port="0" to-layer="1333" to-port="1" />
		<edge from-layer="1333" from-port="2" to-layer="1334" to-port="1" />
		<edge from-layer="1334" from-port="2" to-layer="1336" to-port="0" />
		<edge from-layer="1335" from-port="0" to-layer="1336" to-port="1" />
		<edge from-layer="1336" from-port="2" to-layer="1338" to-port="0" />
		<edge from-layer="1337" from-port="0" to-layer="1338" to-port="1" />
		<edge from-layer="1338" from-port="2" to-layer="1340" to-port="0" />
		<edge from-layer="1339" from-port="0" to-layer="1340" to-port="1" />
		<edge from-layer="1340" from-port="2" to-layer="1345" to-port="0" />
		<edge from-layer="1341" from-port="0" to-layer="1345" to-port="1" />
		<edge from-layer="1342" from-port="0" to-layer="1345" to-port="2" />
		<edge from-layer="1343" from-port="0" to-layer="1345" to-port="3" />
		<edge from-layer="1344" from-port="0" to-layer="1345" to-port="4" />
		<edge from-layer="1345" from-port="5" to-layer="1350" to-port="0" />
		<edge from-layer="1346" from-port="0" to-layer="1347" to-port="0" />
		<edge from-layer="1347" from-port="1" to-layer="1349" to-port="0" />
		<edge from-layer="1348" from-port="0" to-layer="1349" to-port="1" />
		<edge from-layer="1349" from-port="2" to-layer="1350" to-port="1" />
		<edge from-layer="1350" from-port="2" to-layer="1352" to-port="0" />
		<edge from-layer="1351" from-port="0" to-layer="1352" to-port="1" />
		<edge from-layer="1352" from-port="2" to-layer="1353" to-port="0" />
		<edge from-layer="1353" from-port="2" to-layer="1355" to-port="0" />
		<edge from-layer="1354" from-port="0" to-layer="1355" to-port="1" />
		<edge from-layer="1355" from-port="2" to-layer="1357" to-port="0" />
		<edge from-layer="1356" from-port="0" to-layer="1357" to-port="1" />
		<edge from-layer="1357" from-port="2" to-layer="1359" to-port="0" />
		<edge from-layer="1358" from-port="0" to-layer="1359" to-port="1" />
		<edge from-layer="1359" from-port="2" to-layer="1361" to-port="0" />
		<edge from-layer="1359" from-port="2" to-layer="1389" to-port="1" />
		<edge from-layer="1360" from-port="0" to-layer="1361" to-port="1" />
		<edge from-layer="1361" from-port="2" to-layer="1366" to-port="0" />
		<edge from-layer="1362" from-port="0" to-layer="1366" to-port="1" />
		<edge from-layer="1363" from-port="0" to-layer="1366" to-port="2" />
		<edge from-layer="1364" from-port="0" to-layer="1366" to-port="3" />
		<edge from-layer="1365" from-port="0" to-layer="1366" to-port="4" />
		<edge from-layer="1366" from-port="5" to-layer="1371" to-port="0" />
		<edge from-layer="1367" from-port="0" to-layer="1368" to-port="0" />
		<edge from-layer="1368" from-port="1" to-layer="1370" to-port="0" />
		<edge from-layer="1369" from-port="0" to-layer="1370" to-port="1" />
		<edge from-layer="1370" from-port="2" to-layer="1371" to-port="1" />
		<edge from-layer="1371" from-port="2" to-layer="1373" to-port="0" />
		<edge from-layer="1372" from-port="0" to-layer="1373" to-port="1" />
		<edge from-layer="1373" from-port="2" to-layer="1374" to-port="0" />
		<edge from-layer="1374" from-port="1" to-layer="1376" to-port="0" />
		<edge from-layer="1375" from-port="0" to-layer="1376" to-port="1" />
		<edge from-layer="1376" from-port="2" to-layer="1381" to-port="0" />
		<edge from-layer="1377" from-port="0" to-layer="1381" to-port="1" />
		<edge from-layer="1378" from-port="0" to-layer="1381" to-port="2" />
		<edge from-layer="1379" from-port="0" to-layer="1381" to-port="3" />
		<edge from-layer="1380" from-port="0" to-layer="1381" to-port="4" />
		<edge from-layer="1381" from-port="5" to-layer="1386" to-port="0" />
		<edge from-layer="1382" from-port="0" to-layer="1383" to-port="0" />
		<edge from-layer="1383" from-port="1" to-layer="1385" to-port="0" />
		<edge from-layer="1384" from-port="0" to-layer="1385" to-port="1" />
		<edge from-layer="1385" from-port="2" to-layer="1386" to-port="1" />
		<edge from-layer="1386" from-port="2" to-layer="1388" to-port="0" />
		<edge from-layer="1387" from-port="0" to-layer="1388" to-port="1" />
		<edge from-layer="1388" from-port="2" to-layer="1389" to-port="0" />
		<edge from-layer="1389" from-port="2" to-layer="1391" to-port="0" />
		<edge from-layer="1390" from-port="0" to-layer="1391" to-port="1" />
		<edge from-layer="1391" from-port="2" to-layer="1393" to-port="0" />
		<edge from-layer="1392" from-port="0" to-layer="1393" to-port="1" />
		<edge from-layer="1393" from-port="2" to-layer="1395" to-port="0" />
		<edge from-layer="1394" from-port="0" to-layer="1395" to-port="1" />
		<edge from-layer="1395" from-port="2" to-layer="1397" to-port="0" />
		<edge from-layer="1395" from-port="2" to-layer="1471" to-port="1" />
		<edge from-layer="1396" from-port="0" to-layer="1397" to-port="1" />
		<edge from-layer="1397" from-port="2" to-layer="1402" to-port="0" />
		<edge from-layer="1398" from-port="0" to-layer="1402" to-port="1" />
		<edge from-layer="1399" from-port="0" to-layer="1402" to-port="2" />
		<edge from-layer="1400" from-port="0" to-layer="1402" to-port="3" />
		<edge from-layer="1401" from-port="0" to-layer="1402" to-port="4" />
		<edge from-layer="1402" from-port="5" to-layer="1407" to-port="0" />
		<edge from-layer="1402" from-port="5" to-layer="1423" to-port="0" />
		<edge from-layer="1402" from-port="5" to-layer="1445" to-port="0" />
		<edge from-layer="1403" from-port="0" to-layer="1404" to-port="0" />
		<edge from-layer="1404" from-port="1" to-layer="1406" to-port="0" />
		<edge from-layer="1405" from-port="0" to-layer="1406" to-port="1" />
		<edge from-layer="1406" from-port="2" to-layer="1407" to-port="1" />
		<edge from-layer="1407" from-port="2" to-layer="1409" to-port="0" />
		<edge from-layer="1408" from-port="0" to-layer="1409" to-port="1" />
		<edge from-layer="1409" from-port="2" to-layer="1414" to-port="0" />
		<edge from-layer="1410" from-port="0" to-layer="1414" to-port="1" />
		<edge from-layer="1411" from-port="0" to-layer="1414" to-port="2" />
		<edge from-layer="1412" from-port="0" to-layer="1414" to-port="3" />
		<edge from-layer="1413" from-port="0" to-layer="1414" to-port="4" />
		<edge from-layer="1414" from-port="5" to-layer="1416" to-port="0" />
		<edge from-layer="1415" from-port="0" to-layer="1416" to-port="1" />
		<edge from-layer="1416" from-port="2" to-layer="1418" to-port="0" />
		<edge from-layer="1417" from-port="0" to-layer="1418" to-port="1" />
		<edge from-layer="1418" from-port="2" to-layer="1435" to-port="0" />
		<edge from-layer="1419" from-port="0" to-layer="1420" to-port="0" />
		<edge from-layer="1420" from-port="1" to-layer="1422" to-port="0" />
		<edge from-layer="1421" from-port="0" to-layer="1422" to-port="1" />
		<edge from-layer="1422" from-port="2" to-layer="1423" to-port="1" />
		<edge from-layer="1423" from-port="2" to-layer="1425" to-port="0" />
		<edge from-layer="1424" from-port="0" to-layer="1425" to-port="1" />
		<edge from-layer="1425" from-port="2" to-layer="1430" to-port="0" />
		<edge from-layer="1426" from-port="0" to-layer="1430" to-port="1" />
		<edge from-layer="1427" from-port="0" to-layer="1430" to-port="2" />
		<edge from-layer="1428" from-port="0" to-layer="1430" to-port="3" />
		<edge from-layer="1429" from-port="0" to-layer="1430" to-port="4" />
		<edge from-layer="1430" from-port="5" to-layer="1432" to-port="0" />
		<edge from-layer="1431" from-port="0" to-layer="1432" to-port="1" />
		<edge from-layer="1432" from-port="2" to-layer="1434" to-port="0" />
		<edge from-layer="1433" from-port="0" to-layer="1434" to-port="1" />
		<edge from-layer="1434" from-port="2" to-layer="1435" to-port="1" />
		<edge from-layer="1435" from-port="2" to-layer="1437" to-port="0" />
		<edge from-layer="1436" from-port="0" to-layer="1437" to-port="1" />
		<edge from-layer="1437" from-port="2" to-layer="1438" to-port="0" />
		<edge from-layer="1438" from-port="2" to-layer="1439" to-port="0" />
		<edge from-layer="1439" from-port="2" to-layer="1440" to-port="0" />
		<edge from-layer="1440" from-port="1" to-layer="1452" to-port="0" />
		<edge from-layer="1441" from-port="0" to-layer="1442" to-port="0" />
		<edge from-layer="1442" from-port="1" to-layer="1444" to-port="0" />
		<edge from-layer="1443" from-port="0" to-layer="1444" to-port="1" />
		<edge from-layer="1444" from-port="2" to-layer="1445" to-port="1" />
		<edge from-layer="1445" from-port="2" to-layer="1447" to-port="0" />
		<edge from-layer="1446" from-port="0" to-layer="1447" to-port="1" />
		<edge from-layer="1447" from-port="2" to-layer="1449" to-port="0" />
		<edge from-layer="1448" from-port="0" to-layer="1449" to-port="1" />
		<edge from-layer="1449" from-port="2" to-layer="1451" to-port="0" />
		<edge from-layer="1450" from-port="0" to-layer="1451" to-port="1" />
		<edge from-layer="1451" from-port="2" to-layer="1452" to-port="1" />
		<edge from-layer="1452" from-port="2" to-layer="1454" to-port="0" />
		<edge from-layer="1453" from-port="0" to-layer="1454" to-port="1" />
		<edge from-layer="1454" from-port="2" to-layer="1456" to-port="0" />
		<edge from-layer="1455" from-port="0" to-layer="1456" to-port="1" />
		<edge from-layer="1456" from-port="2" to-layer="1458" to-port="0" />
		<edge from-layer="1457" from-port="0" to-layer="1458" to-port="1" />
		<edge from-layer="1458" from-port="2" to-layer="1463" to-port="0" />
		<edge from-layer="1459" from-port="0" to-layer="1463" to-port="1" />
		<edge from-layer="1460" from-port="0" to-layer="1463" to-port="2" />
		<edge from-layer="1461" from-port="0" to-layer="1463" to-port="3" />
		<edge from-layer="1462" from-port="0" to-layer="1463" to-port="4" />
		<edge from-layer="1463" from-port="5" to-layer="1468" to-port="0" />
		<edge from-layer="1464" from-port="0" to-layer="1465" to-port="0" />
		<edge from-layer="1465" from-port="1" to-layer="1467" to-port="0" />
		<edge from-layer="1466" from-port="0" to-layer="1467" to-port="1" />
		<edge from-layer="1467" from-port="2" to-layer="1468" to-port="1" />
		<edge from-layer="1468" from-port="2" to-layer="1470" to-port="0" />
		<edge from-layer="1469" from-port="0" to-layer="1470" to-port="1" />
		<edge from-layer="1470" from-port="2" to-layer="1471" to-port="0" />
		<edge from-layer="1471" from-port="2" to-layer="1473" to-port="0" />
		<edge from-layer="1472" from-port="0" to-layer="1473" to-port="1" />
		<edge from-layer="1473" from-port="2" to-layer="1475" to-port="0" />
		<edge from-layer="1474" from-port="0" to-layer="1475" to-port="1" />
		<edge from-layer="1475" from-port="2" to-layer="1477" to-port="0" />
		<edge from-layer="1476" from-port="0" to-layer="1477" to-port="1" />
		<edge from-layer="1477" from-port="2" to-layer="1479" to-port="0" />
		<edge from-layer="1477" from-port="2" to-layer="1507" to-port="1" />
		<edge from-layer="1478" from-port="0" to-layer="1479" to-port="1" />
		<edge from-layer="1479" from-port="2" to-layer="1484" to-port="0" />
		<edge from-layer="1480" from-port="0" to-layer="1484" to-port="1" />
		<edge from-layer="1481" from-port="0" to-layer="1484" to-port="2" />
		<edge from-layer="1482" from-port="0" to-layer="1484" to-port="3" />
		<edge from-layer="1483" from-port="0" to-layer="1484" to-port="4" />
		<edge from-layer="1484" from-port="5" to-layer="1489" to-port="0" />
		<edge from-layer="1485" from-port="0" to-layer="1486" to-port="0" />
		<edge from-layer="1486" from-port="1" to-layer="1488" to-port="0" />
		<edge from-layer="1487" from-port="0" to-layer="1488" to-port="1" />
		<edge from-layer="1488" from-port="2" to-layer="1489" to-port="1" />
		<edge from-layer="1489" from-port="2" to-layer="1491" to-port="0" />
		<edge from-layer="1490" from-port="0" to-layer="1491" to-port="1" />
		<edge from-layer="1491" from-port="2" to-layer="1492" to-port="0" />
		<edge from-layer="1492" from-port="1" to-layer="1494" to-port="0" />
		<edge from-layer="1493" from-port="0" to-layer="1494" to-port="1" />
		<edge from-layer="1494" from-port="2" to-layer="1499" to-port="0" />
		<edge from-layer="1495" from-port="0" to-layer="1499" to-port="1" />
		<edge from-layer="1496" from-port="0" to-layer="1499" to-port="2" />
		<edge from-layer="1497" from-port="0" to-layer="1499" to-port="3" />
		<edge from-layer="1498" from-port="0" to-layer="1499" to-port="4" />
		<edge from-layer="1499" from-port="5" to-layer="1504" to-port="0" />
		<edge from-layer="1500" from-port="0" to-layer="1501" to-port="0" />
		<edge from-layer="1501" from-port="1" to-layer="1503" to-port="0" />
		<edge from-layer="1502" from-port="0" to-layer="1503" to-port="1" />
		<edge from-layer="1503" from-port="2" to-layer="1504" to-port="1" />
		<edge from-layer="1504" from-port="2" to-layer="1506" to-port="0" />
		<edge from-layer="1505" from-port="0" to-layer="1506" to-port="1" />
		<edge from-layer="1506" from-port="2" to-layer="1507" to-port="0" />
		<edge from-layer="1507" from-port="2" to-layer="1509" to-port="0" />
		<edge from-layer="1508" from-port="0" to-layer="1509" to-port="1" />
		<edge from-layer="1509" from-port="2" to-layer="1511" to-port="0" />
		<edge from-layer="1510" from-port="0" to-layer="1511" to-port="1" />
		<edge from-layer="1511" from-port="2" to-layer="1513" to-port="0" />
		<edge from-layer="1512" from-port="0" to-layer="1513" to-port="1" />
		<edge from-layer="1513" from-port="2" to-layer="1514" to-port="0" />
	</edges>
	<rt_info>
		<Runtime_version value="2024.4.1-16618-643f23d1318-releases/2024/4" />
		<conversion_parameters>
			<framework value="pytorch" />
			<is_python_object value="True" />
		</conversion_parameters>
		<nncf>
			<friendly_names_were_updated value="True" />
			<quantization>
				<advanced_parameters value="{'overflow_fix': 'disable', 'quantize_outputs': False, 'inplace_statistics': True, 'disable_channel_alignment': True, 'disable_bias_correction': False, 'batchwise_statistics': None, 'activations_quantization_params': None, 'weights_quantization_params': None, 'activations_range_estimator_params': {'min': {'statistics_type': None, 'aggregator_type': None, 'clipping_value': None, 'quantile_outlier_prob': 0.0001}, 'max': {'statistics_type': None, 'aggregator_type': None, 'clipping_value': None, 'quantile_outlier_prob': 0.0001}}, 'weights_range_estimator_params': {'min': {'statistics_type': None, 'aggregator_type': None, 'clipping_value': None, 'quantile_outlier_prob': 0.0001}, 'max': {'statistics_type': None, 'aggregator_type': None, 'clipping_value': None, 'quantile_outlier_prob': 0.0001}}, 'bias_correction_params': {'apply_for_all_nodes': False, 'threshold': None}, 'smooth_quant_alphas': {'convolution': -1, 'matmul': 0.95}, 'smooth_quant_alpha': None, 'backend_params': {}}" />
				<fast_bias_correction value="True" />
				<ignored_scope>
					<types value="['GroupNormalization']" />
				</ignored_scope>
				<model_type value="transformer" />
				<preset value="mixed" />
				<subset_size value="300" />
				<target_device value="ANY" />
			</quantization>
		</nncf>
		<optimum>
			<optimum_intel_version value="1.20.0.dev0+b31524c" />
			<optimum_version value="1.23.0" />
			<pytorch_version value="2.5.0.dev20240807+cu121" />
			<transformers_version value="4.43.4" />
		</optimum>
	</rt_info>
</net>
